src/main/runs/exp127_SIG-138/weights/best.pt (torch, 733990 bytes, 66 tensors)

bn.weight f4 [32]
1.6000175 1.1275244 1.5385904 1.2535112 1.5937796 1.4311137 1.4836881 1.5852308
1.4693818 1.0396887 1.1469767 1.4470088 1.348056 1.4488319 1.4617784 1.1036484
1.3659818 1.5639447 1.4780089 1.5236706 1.5307856 1.4645258 1.5685507 1.5860744
1.3529042 1.652252 1.6402656 1.6033665 1.6023915 1.4888155 1.5552795 1.5791833
00000000: 60cd cc3f b852 903f 88f0 c43f 0e73 a03f
00000010: f800 cc3f bc2e b73f 7ee9 bd3f d8e8 ca3f
00000020: b414 bc3f 8514 853f 22d0 923f 9637 b93f
00000030: 198d ac3f 5373 b93f 8e1b bb3f 5a44 8d3f
00000040: 7ed8 ae3f 572f c83f 652f bd3f a307 c33f
00000050: c8f0 c33f 9575 bb3f 45c6 c83f 7c04 cb3f
00000060: f72b ad3f fe7c d33f 39f4 d13f 1d3b cd3f
00000070: 2a1b cd3f 8291 be3f 6613 c73f ae22 ca3f

bn.bias f4 [32]
0.36407965 -0.3514527 0.24496941 0.2675324 -0.41850838 -0.601579 0.21537675 -0.0424189
0.33347392 0.09995858 -0.35248283 0.15957907 -0.3028887 0.30333346 -0.4379486 0.5206727
-0.053786818 0.15678343 -0.15937623 -0.034052595 0.44114137 0.4419792 0.10204614 0.094668426
-0.28223172 -0.4817885 -0.45729432 -0.39380002 -0.2582962 0.055919085 -0.057995398 -0.26324153
00000000: a668 ba3e 9cf1 b3be 43d9 7a3e 02fa 883e
00000010: bb46 d6be 1501 1abf b98b 5c3e 71bf 2dbd
00000020: 18bd aa3e 16b7 cc3d a178 b4be b268 233e
00000030: 3a14 9bbe 864e 9b3e cd3a e0be ce4a 053f
00000040: 914f 5cbd d68b 203e 8633 23be bc7a 0bbd
00000050: 48dd e13e 194b e23e 91fd d03d 85e1 c13d
00000060: ad80 90be fbac f6be 7b22 eabe 28a0 c9be
00000070: 663f 84be 690b 653d 958c 6dbd 98c7 86be

bn.running_mean f4 [32]
-0.109396935 0.22431846 -0.06472985 0.036205586 -0.07950752 0.13194363 -0.11936672 -0.009249943
-0.032174833 -0.180075 -0.07974708 -0.0668688 0.12841102 -0.079664975 0.11870391 -0.13124888
0.12576881 -0.057950668 0.015231272 0.05819422 -0.01627021 -0.079733856 -0.074022226 0.011845523
0.1368111 0.020675525 -0.04667941 0.0034636264 -0.022148436 -0.06575245 -0.05403723 -0.057749227
00000000: 800b e0bd bdb3 653e 1591 84bd 4f4c 143d
00000010: d7d4 a2bd 3b1c 073e 8a76 f4bd 138d 17bc
00000020: c2c9 03bd 9565 38be 7052 a3bd 82f2 88bd
00000030: 2e7e 033e 6427 a3bd 091b f33d 1b66 06be
00000040: 8ac9 003e ae5d 6dbd 968c 793c 105d 6e3d
00000050: 1a49 85bc 814b a3bd f798 97bd b913 423c
00000060: 3618 0c3e b85f a93c e932 3fbd 02fe 623b
00000070: a370 b5bc 38a9 86bd 2456 5dbd 748a 6cbd

bn.running_var f4 [32]
0.891104 0.44738138 0.9888163 0.976629 0.91295916 0.7034235 0.8325687 1.1117517
1.0552549 0.58860534 0.18379465 0.4617649 0.43009046 0.43202323 0.2975656 0.16617721
0.33632892 0.46347764 0.63770604 0.47066203 0.355344 0.18780729 0.251302 0.27482325
0.13674174 0.29417646 0.24550915 0.27961925 0.41775018 0.19993019 0.19342966 0.2590906
00000000: 641f 643f 2c0f e53e 1123 7d3f 5c04 7a3f
00000010: b1b7 693f 9013 343f 3923 553f e14d 8e3f
00000020: 9812 873f d7ae 163f aa34 3c3e 736c ec3e
00000030: d134 dc3e 2632 dd3e 855a 983e 5c2a 2a3e
00000040: 4e33 ac3e f14c ed3e b440 233f 9dfa f03e
00000050: a6ef b53e 8e50 403e a8aa 803e a2b5 8c3e
00000060: 0706 0c3e 4c9e 963e c066 7b3e 412a 8f3e
00000070: 5ae3 d53e 80ba 4c3e 6d12 463e 86a7 843e

lstm.weight_ih_l0 f4 [256, 32]
0.020445168 0.07009666 -0.02631712 0.068548545 -0.037043422 0.002809912 0.12151891 0.07477993
0.006070301 -0.03506291 0.11799309 -0.11915396 0.09501338 -0.0014062077 0.021307841 -0.045068473
0.10174 -0.0015915632 0.042929605 0.11681926 -0.0975018 0.062069505 0.052535668 0.032302707
0.038653135 -0.0566476 0.10568574 0.08673017 -0.03152454 -0.08666061 -0.0019826144 0.112828106
-0.061328843 0.0058439374 -0.027409986 -0.03850344 0.035258725 0.06248109 -0.028916493 0.04404646
0.0048083067 0.002250418 0.114912525 0.046064064 0.10027245 -0.07326366 -0.12402913 -0.041315794
-0.04271315 -0.04614143 0.09552701 -0.111601114 0.108964026 -0.12230122 -0.102880865 0.06179808
-0.045744672 0.017617047 -0.083048955 0.074159086 0.082345515 -0.009139702 -0.008609429 0.09324893
-0.06208937 0.08804715 -0.07572265 0.119733736 -0.02393496 0.076366946 -0.041588753 0.084781334
-0.017800316 -0.04177706 -0.08846891 -0.039235055 0.034502372 -0.115928665 0.08017571 -0.058726445
0.07649255 -0.1100727 0.06854218 0.013000727 0.026435763 0.093906745 0.08598146 0.042981595
-0.0026912838 -0.09635863 -0.1043853 -0.027363658 -0.030624658 -0.09347007 -0.022514313 -0.099501505
0.003645271 0.10109906 -0.0069274753 -0.021530226 -0.073659584 -0.010850802 -0.11268669 0.103303924
-0.115483835 -0.060064197 0.061289996 -0.0031247735 0.061559677 -0.09291212 0.0011208951 -0.04635118
0.034982458 -0.024709433 -0.0687397 -0.050080553 0.071626216 -0.112836 0.07891643 0.03481406
0.06123078 -0.07309994 -0.03421092 -0.06892215 0.050339937 0.03974235 -0.040330037 -0.07303473
-0.03657219 0.005483955 -0.0039324462 -0.122021794 0.09775767 0.010429472 0.053362712 -0.086915314
0.08226237 0.0061537623 -0.09124425 0.050710946 -0.05515577 -0.10160005 -0.041597232 -0.10560551
-0.001497522 0.03706719 -0.00032101572 0.10684596 -0.049984246 0.0283117 -0.0829559 0.11216056
-0.00070627034 -0.05674319 0.050483763 0.10402499 0.10566726 0.09766291 -0.034017533 -0.010511413
-0.052484736 0.034834564 0.07972883 0.016862258 -0.044688165 0.109438926 -0.11564493 0.050256178
-0.0738983 0.064610645 0.036565572 -0.015945375 -0.07409753 0.03608015 -0.10291727 0.07788701
0.025023386 0.034667924 -0.052624166 0.061889082 -0.067022815 0.0026906729 -0.026293412 -0.018854424
-0.05691585 -0.014790356 -0.11779341 0.013217539 0.11622058 -5.6043267e-05 0.117280915 0.013142586
-0.0575822 0.07655531 -0.008107543 -0.02576688 -0.0067196637 0.09327647 0.11853102 -0.0018462241
-0.1186102 0.046649456 0.026534766 -0.10052706 -0.009019926 -0.10187772 -0.07799983 -0.047024712
-0.04669547 0.09024416 -0.1034589 0.049592227 0.023981452 -0.027868554 -0.10605919 -0.016746223
0.09909551 0.07415581 -0.0924709 -0.12295446 0.0033248365 0.035090387 0.024793789 0.04435663
-0.08986282 -0.105158776 0.115669444 0.100055695 -0.049841687 0.06782596 0.12140277 0.0708005
0.020699546 0.024976939 -0.117131904 -0.017315507 -0.052980736 -0.08259167 -0.11088218 0.10522623
0.038168937 0.0006326884 0.11988942 0.026765287 0.122325286 0.11322221 0.04715465 -0.05707419
0.10075499 -0.1050957 0.071459636 0.045435786 0.022127643 -0.032344863 0.031822786 -0.11994177
00000000: a07c a73c d68e 8f3d 0097 d7bc 2e63 8c3d
00000010: d8ba 17bd 8026 383b e8de f83d 3826 993d
00000020: 60e9 c63b 209e 0fbd 5ca6 f13d fe06 f4bd
00000030: 6096 c23d 8050 b8ba c88d ae3c b899 38bd
00000040: 105d d03d 009c d0ba f4d6 2f3d f03e ef3d
00000050: 06af c7bd 983c 7e3d a42f 573d d84f 043d
00000060: c052 1e3d 5007 68bd c471 d83d 969f b13d
00000070: e01f 01bd 1e7b b1bd c0ee 01bb 6c12 e73d
00000080: f433 7bbd 807e bf3b e88a e0bc c8b5 1dbd
00000090: 746b 103d 2cec 7f3d 48e2 ecbc 106a 343d
000000a0: 008f 9d3b c07b 133b 4257 eb3d acad 3c3d
000000b0: a45b cd3d 420b 96bd fc02 febd c03a 29bd
000000c0: fcf3 2ebd ccfe 3cbd aaa3 c33d 208f e4bd
000000d0: 8828 df3d 1079 fabd 34b3 d2bd fc1f 7d3d
000000e0: c45e 3bbd a051 903c 9215 aabd b8e0 973d
000000f0: c4a4 a83d b0be 15bc 900e 0dbc 4cf9 be3d
00000100: 6c51 7ebd 1052 b43d 7a14 9bbd f636 f53d
00000110: 4013 c4bc 4666 9c3d f858 2abd d6a1 ad3d
00000120: f8d1 91bc 6c1e 2bbd 302f b5bd f0b4 20bd
00000130: 5c52 0d3d 026c edbd 2a33 a43d 248b 70bd
00000140: 20a8 9c3d cc6d e1bd d85f 8c3d 0001 553c
00000150: d08f d83c 2e52 c03d 0c17 b03d 780d 303d
00000160: 4060 30bb ac57 c5bd f6c7 d5bd c029 e0bc
00000170: 90e0 fabc 3c6d bfbd f06f b8bc 72c7 cbbd
00000180: 80e5 6e3b 060d cf3d e0ff e2bb 2860 b0bc
00000190: d6da 96bd 90c7 31bc 48c8 e6bd 0291 d33d
000001a0: ca82 ecbd e005 76bd 380b 7b3d 00c9 4cbb
000001b0: 0026 7c3d b648 bebd 00eb 923a bcda 3dbd
000001c0: c449 0f3d 706b cabc 66c7 8cbd 4421 4dbd
000001d0: c4b0 923d 9016 e7bd f09e a13d 3099 0e3d
000001e0: 20cd 7a3d 6cb5 95bd c020 0cbd 0e27 8dbd
000001f0: 4031 4e3d e0c8 223d 1c31 25bd 3c93 95bd
00000200: b8cc 15bd c0b2 b33b c0db 80bb 90e6 f9bd
00000210: 2c35 c83d 60e0 2a3c dc92 5a3d a800 b2bd
00000220: 2c79 a83d 80a5 c93b 44de babd 48b6 4f3d
00000230: 04eb 61bd b013 d0bd dc61 2abd b447 d8bd
00000240: 8048 c4ba c4d3 173d 004e a8b9 0ed2 da3d
00000250: 48bc 4cbd f0ed e73c c8e4 a9bd 70b4 e53d
00000260: 0025 39ba 8c6b 68bd 10c8 4e3d 0e0b d53d
00000270: 1468 d83d 7e03 c83d f855 0bbd 1038 2cbc
00000280: 3cfa 56bd b0ae 0e3d de48 a33d b822 8a3c
00000290: f00a 37bd 8421 e03d 40d7 ecbd 6cd9 4d3d
000002a0: fe57 97bd 9652 843d c8c5 153d e09f 82bc
000002b0: 72c0 97bd c8c8 133d 4ac6 d2bd 3a83 9f3d
000002c0: d8fd cc3c f4ff 0d3d 708c 57bd 687f 7d3d
000002d0: 4243 89bd 0056 303b 4865 d7bc 9874 9abc
000002e0: 9820 69bd 4053 72bc ac3d f1bd 608e 583c
000002f0: 0e05 ee3d 0010 6bb8 fa30 f03d 0054 573c
00000300: 50db 6bbd 08c9 9c3d 80d5 04bc 1015 d3bc
00000310: a030 dcbb bc07 bf3d 64c0 f23d 00fd f1ba
00000320: e8e9 f2bd 8013 3f3d 705f d93c 22e1 cdbd
00000330: 50c8 13bc 44a5 d0bd 60be 9fbd fc9c 40bd
00000340: c043 3fbd eed1 b83d 42e2 d3bd 3821 4b3d
00000350: c074 c43c 984c e4bc 9035 d9bd 602f 89bc
00000360: 96f2 ca3d 00df 973d 6261 bdbd 8ccf fbbd
00000370: 80e5 593b f0ba 0f3d 581c cb3c 4caf 353d
00000380: 000a b8bd 7c5d d7bd 1ae4 ec3d 00ea cc3d
00000390: cc26 4cbd 56e8 8a3d 04a2 f83d daff 903d
000003a0: 1892 a93c 709c cc3c dae2 efbd 40d9 8dbc
000003b0: 5402 59bd d225 a9bd 3216 e3bd da80 d73d
000003c0: 0857 1c3d 00db 253a 9688 f53d e042 db3c
000003d0: ae85 fa3d 0ce1 e73d 3c25 413d a0c6 69bd
000003e0: a258 ce3d 6a3c d7bd 6e59 923d e01a 3a3d
000003f0: 0845 b53c 0c7c 04bd 9c58 023d 08a4 f5bd

lstm.weight_hh_l0 f4 [256, 64]
-0.11876747 -0.065029636 -0.061118677 -0.0847587 0.0701925 -0.07530601 0.09366715 -0.04199809
-0.026005954 -0.0060834438 -0.053127646 -0.098673284 -0.061295375 -0.059162334 -0.064293206 0.002750054
0.063419566 -0.06490514 0.073234916 -0.02541013 0.05086112 -0.11105257 0.0687419 0.08058113
-0.048962414 0.041211665 0.08250119 0.04459113 0.11755501 -0.07390162 -0.11875448 0.118846476
0.08486299 0.05950652 0.012697667 0.10124546 0.047265753 -0.071464255 -0.049154192 0.071420595
-0.11296949 0.03078942 -0.09087953 -0.07459864 -0.06677814 -0.036518633 0.0154684335 0.006769493
-0.11920278 0.043642476 -0.053634644 -0.052297518 -0.12066983 0.032413647 0.04463546 0.08019416
-0.09116551 -0.082248196 0.11367932 -0.04653339 -0.0022634417 -0.08384071 0.092140645 0.049589768
0.1066971 0.06658812 -0.05517991 -0.1202624 0.0690922 0.04468207 0.017928198 -0.006643221
0.1057955 0.04960583 0.0042471886 0.10528946 0.040645063 -0.0014018714 0.053386778 -0.023927465
0.033017993 0.007745728 -0.024204776 -0.02907665 0.0658246 0.115177035 0.09765734 0.09300308
-0.08751528 -0.052456737 0.12290697 -0.05612439 -0.11614533 -0.046922624 0.09921977 -0.02591665
-0.10985719 0.027798772 0.08170056 0.00609982 0.08716276 0.113460004 -0.01646541 -0.0036287606
-0.013104826 -0.07839735 0.11783214 -0.11090249 0.054286867 -0.08863501 -0.001808241 -0.062397406
-0.11394963 0.101581156 0.080904216 -0.12212154 -0.102799624 -0.09513198 0.07096599 0.05960788
0.050586924 0.08922425 0.009918749 0.0769161 0.03392394 -0.04213567 -0.051272944 -0.09742671
0.059155017 0.08840375 -0.11180784 -0.07738136 0.015380636 0.05462995 0.075196356 -0.115708545
-0.004229769 0.080696404 -0.06412478 0.05969125 -0.08947082 -0.018721595 0.06856775 -0.0036302358
-0.037779987 0.06562407 -0.098955855 -0.06805736 0.101753175 0.10627687 0.08194141 -0.062594295
0.038523793 -0.119477496 -0.103565276 0.100656465 0.004993379 -0.0927719 0.033157513 -0.10820572
-0.02483648 -0.09781511 -0.03468615 -0.06229636 -0.030046761 -0.04178059 0.03558612 0.05938208
0.054678813 0.10377003 0.035940275 -0.026357487 -0.05440335 0.02647981 -0.0978895 0.086670995
-0.120517224 0.07051808 -0.11768149 -0.059843034 0.083787575 -0.004434392 -0.060715646 0.0034020245
0.113686174 -0.11994247 0.07134439 -0.11120218 -0.01377514 0.075241044 -0.011377722 -0.08616419
0.07165949 -0.08168222 0.09469439 -0.028320104 0.029417664 0.02712521 -0.10924497 0.020113632
0.117371276 0.009295568 -0.10843296 0.013744295 -0.056509003 0.041230187 -0.06879532 0.026662275
0.031463012 -0.013784245 -0.10990377 -0.0003181845 0.05458571 -0.09054154 0.09498109 0.04191424
0.09430052 0.029344037 0.102142334 -0.09280653 -0.10565744 -0.10677257 0.07952076 -0.046553716
0.10347855 0.12244603 -0.09320046 0.07460259 0.10034719 -0.09570275 -0.019105732 0.11897433
0.0066547245 -0.104166895 -0.07070866 0.11310594 0.08364034 0.06566182 -0.029025048 0.0789773
-0.052239165 0.06563379 0.109613866 0.10548897 0.074688524 -0.029115304 0.044155255 0.05312279
-0.007850915 -0.06928505 0.10963793 0.116456345 0.051543355 -0.06273313 0.024749294 0.11065829
00000000: 5c3c f3bd 422e 85bd 9457 7abd f895 adbd
00000010: 16c1 8f3d 0a3a 9abd 90d4 bf3d 3006 2cbd
00000020: 700a d5bc a057 c7bb 609c 59bd 3815 cabd
00000030: dc10 7bbd 3454 72bd 28ac 83bd 403a 343b
00000040: 1ee2 813d fcec 84bd 30fc 953d e828 d0bc
00000050: c053 503d 886f e3bd 8ec8 8c3d b807 a53d
00000060: d08c 48bd 90cd 283d 62f6 a83d 30a5 363d
00000070: aec0 f03d bc59 97bd 8c35 f3bd c865 f33d
00000080: a6cc ad3d 1cbd 733d e009 503c c859 cf3d
00000090: bc99 413d da5b 92bd e855 49bd f644 923d
000000a0: 8c5c e7bd 183a fc3c 0c1f babd 2cc7 98bd
000000b0: fac2 88bd 9094 15bd 506f 7d3c a0d2 dd3b
000000c0: 9620 f4bd 74c2 323d 00b0 5bbd ec35 56bd
000000d0: be21 f7bd 2cc4 043d acd3 363d d63c a43d
000000e0: fcb4 babd be71 a8bd b4d0 e83d cc99 3ebd
000000f0: 4056 14bb aeb4 abbd 3cb4 bc3d a41e 4b3d
00000100: 0284 da3d 5a5f 883d 5404 62bd 224c f6bd
00000110: 3680 8d3d 8c04 373d 28de 923c 60af d9bb
00000120: 50ab d83d 7c2f 4b3d 002c 8b3b 00a2 d73d
00000130: 707b 263d 00bf b7ba 18ac 5a3d 8803 c4bc
00000140: e03d 073d e0cf fd3b 1849 c6bc 2832 eebc
00000150: 0ccf 863d f0e1 eb3d 9200 c83d 6678 be3d
00000160: 363b b3bd e0dc 56bd a6b6 fb3d b0e2 65bd
00000170: 9add edbd f031 40bd bc33 cb3d 284f d4bc
00000180: cefc e0bd 40ba e33c a052 a73d 00e1 c73b
00000190: 6482 b23d b85d e83d 78e2 86bc 80d0 6dbb
000001a0: a0b5 56bc ca8e a0bd fa51 f13d d820 e3bd
000001b0: e85b 5e3d 4686 b5bd 8002 edba 6c94 7fbd
000001c0: 6c5e e9bd c809 d03d 1cb1 a53d dc1a fabd
000001d0: 9c88 d2bd 8ed4 c2bd 9e56 913d 6427 743d
000001e0: 3c34 4f3d 34bb b63d 4082 223c 3086 9d3d
000001f0: d4f3 0a3d 7496 2cbd 9403 52bd a887 c7bd
00000200: 884c 723d 060d b53d 82fb e4bd 1e7a 9ebd
00000210: 10ff 7b3c a8c3 5f3d 8c00 9a3d 9af8 ecbd
00000220: e099 8abb 2844 a53d da53 83bd d07e 743d
00000230: 7a3c b7bd 085e 99bc 406d 8c3d 40e9 6dbb
00000240: 30bf 1abd ea65 863d 5ea9 cabd a861 8bbd
00000250: f863 d03d b0a7 d93d e6d0 a73d 7031 80bd
00000260: 20cb 1d3d 9eb0 f4bd 081a d4bd fa24 ce3d
00000270: 809f a33b 32ff bdbd 2cd0 073d f69a ddbd
00000280: e075 cbbc 4a53 c8bd 1013 0ebd 782a 7fbd
00000290: a024 f6bc 2022 2bbd c0c2 113d a03a 733d
000002a0: e4f6 5f3d 6285 d43d 1c36 133d a8eb d7bc
000002b0: 0cd6 5ebd 30ec d83c 4a7a c8bd 9080 b13d
000002c0: bcd1 f6bd c86b 903d fe02 f1bd f81d 75bd
000002d0: d298 ab3d 604e 91bb f8b0 78bd 80f4 5e3b
000002e0: 4cd4 e83d 66a4 f5bd 021d 923d f8bd e3bd
000002f0: 20b1 61bc fa17 9a3d a069 3abc da76 b0bd
00000300: 36c2 923d 0249 a7bd 22ef c13d 90ff e7bc
00000310: 50fd f03c b035 de3c d4bb dfbd 58c5 a43c
00000320: 5a60 f03d 704c 183c 1a12 debd c02f 613c
00000330: fc75 67bd fce0 283d 90e4 8cbd d86a da3c
00000340: 5cdf 003d 50d7 61bc 3a15 e1bd 00d2 a6b9
00000350: 4495 5f3d d86d b9bd 7285 c23d 44ae 2b3d
00000360: a220 c13d e862 f03c 0030 d13d 5a11 bebd
00000370: ee62 d8bd 94ab dabd c8db a23d 1caf 3ebd
00000380: 90ec d33d fcc4 fa3d e2df bebd 3ec9 983d
00000390: d482 cd3d ceff c3bd a083 9cbc d0a8 f33d
000003a0: e00f da3b 7455 d5bd b4cf 90bd 16a4 e73d
000003b0: a04b ab3d b479 863d f0c5 edbc dabe a13d
000003c0: bcf8 55bd 026b 863d 3c7d e03d 9a0a d83d
000003d0: 4cf6 983d 3883 eebc 24dc 343d 4897 593d
000003e0: 20a1 00bc 52e5 8dbd da89 e03d aa80 ee3d
000003f0: 201f 533d 3a7a 80bd 08bf ca3c d0a0 e23d

lstm.bias_ih_l0 f4 [256]
-0.04844752 0.11851977 -0.11664717 -0.10984497 -0.05013199 -0.083429605 0.0013583452 -0.003672272
-0.0029707104 -0.059656322 -0.080299884 -0.055205822 0.1020768 -0.012815028 0.0694899 0.09020288
-0.089433834 0.037197903 -0.058736503 -0.12079573 0.057177976 0.03517717 0.06508091 -0.05952692
-0.089288265 -0.046177 -0.06465626 -0.087126985 -0.0076999664 0.011680707 -0.020130396 -0.082534194
-0.021458149 -0.03154263 -0.008112043 -0.04060778 -0.01984483 -0.088675275 0.051355854 0.03981422
0.10541755 -0.005763918 -0.024238989 0.0041986257 -0.046884894 0.044738486 -0.0634163 0.015847892
0.0709883 0.041380078 0.06920947 0.025530443 0.10814378 0.090351656 0.05707565 -0.11760193
0.0637638 -0.022941232 -0.0028270036 0.08355433 -0.028712153 -0.090619266 0.061413467 -0.08161056
-0.11818358 0.04176709 -0.09200196 -0.089608446 -0.070043325 -0.076814115 -0.07767215 -0.011045858
-0.03476116 0.027769625 0.07062772 0.08947784 -0.11068994 0.02491188 -0.097260505 0.007849082
-0.09831314 0.12087959 -0.008160576 0.019607991 0.012995601 0.05399096 -0.11446735 -0.10983315
0.016466275 0.022990644 0.052264675 0.07011637 -0.09806436 -0.053230733 0.033210114 -0.017680556
0.11748332 -0.10373594 0.08941567 0.056796268 0.00186342 0.0034255087 0.12261975 -0.028838262
-0.097133994 0.1082623 0.12341796 0.0711769 0.034541935 0.08511065 0.053540394 -0.023710445
-0.0340482 -0.11627516 -0.08413881 -0.10292484 -0.007541865 0.05616249 0.047135487 0.06487575
-0.07432641 -0.048009112 0.023434058 0.064384356 0.101132184 -0.022716 0.08961089 0.030441836
0.06726794 0.019274488 -0.11192772 0.050875083 -0.059395194 -0.0050158054 0.08949636 0.01815468
0.079388395 -0.06479594 0.12326509 -0.030205488 -0.04652804 0.11910288 0.0800083 0.030912071
-0.06088768 -0.016619042 -0.016878456 -0.110711336 0.08166665 -0.0090495795 -0.12439829 0.075126454
-0.071208894 -0.052464634 -0.009568229 0.12128407 -0.045728475 0.11108731 0.025118664 -0.09161557
0.11571902 -0.08120647 0.08977544 -0.1039035 0.10723062 -0.11237924 0.049390137 -0.035138607
0.006084919 -0.0786722 -0.0622005 -0.058692157 -0.106732115 0.0834164 -0.11082128 0.11972867
0.024677932 0.084178835 0.017146483 -0.027568951 -0.001606524 -0.08509119 -0.018346474 0.048408404
0.020489916 -0.05443509 -0.04488729 -0.09353617 -0.057411164 0.12228964 -0.11066133 -0.07329358
-0.082953215 -0.12096475 0.020986035 0.09716602 -0.0071555227 -0.08980073 0.07502028 -0.029763684
0.11201148 0.12450796 -0.120701924 -0.024186984 -0.031891853 0.114590615 0.061447322 0.050435692
-0.019339845 0.04813029 -0.022145048 0.08373563 -0.08699243 -0.049787253 -0.09788811 -0.057707682
-0.09967214 -0.122919425 -0.117256805 -0.06297685 -0.06589438 0.061369345 -0.11974177 -0.108631134
-0.10031001 -0.060366526 -0.118308425 -0.059892893 -0.06796281 -0.04676974 0.083525434 -0.007058218
0.0696235 0.052463472 0.013090149 -0.083520144 0.1214329 0.056956112 0.051188946 0.020478874
-0.05441904 -0.09854613 0.037442416 0.026122883 0.09677796 0.04572624 -0.06483506 -0.09021069
-0.08625148 0.10316518 0.043007478 -0.05227889 -0.04506111 -0.016376197 -0.008924216 -0.11688317
00000000: e870 46bd 7eba f23d b6e4 eebd 66f6 e0bd
00000010: 3457 4dbd 24dd aabd 800a b23a 80aa 70bb
00000020: 40b0 42bb 305a 74bd 4474 a4bd 801f 62bd
00000030: a40d d13d 20f6 51bc b850 8e3d 4abc b83d
00000040: 1629 b7bd d45c 183d b095 70bd c063 f7bd
00000050: 7433 6a3d f015 103d 2449 853d 80d2 73bd
00000060: c4dc b6bd 1824 3dbd 806a 84bd a26f b2bd
00000070: 0050 fcbb 7060 3f3c 80e8 a4bc b007 a9bd
00000080: 00c9 afbc d832 01bd 60e8 04bc 5854 26bd
00000090: a091 a2bc 629b b5bd 845a 523d 3c14 233d
000000a0: 28e5 d73d 40df bcbb d890 c6bc a094 893b
000000b0: 600a 40bd b43f 373d 68e0 81bd 70d3 813c
000000c0: 5062 913d 287e 293d b2bd 8d3d 3825 d13c
000000d0: 7c7a dd3d 4a0a b93d 28c8 693d 48d9 f0bd
000000e0: 9896 823d 40ef bbbc 4045 39bb 881e ab3d
000000f0: c035 ebbc 9896 b9bd b08c 7b3d 7023 a7bd
00000100: 3c0a f2bd f813 2b3d 866b bcbd a284 b7bd
00000110: e072 8fbd b850 9dbd 9412 9fbd b0f9 34bc
00000120: b861 0ebd 207d e33c 44a5 903d 2840 b73d
00000130: 68b1 e2bd 0014 cc3c 8430 c7bd 7099 003c
00000140: 6658 c9bd b88f f73d f0b3 05bc f0a0 a03c
00000150: 80eb 543c a025 5d3d dc6d eabd 34f0 e0bd
00000160: 48e4 863c e056 bc3c 7c13 563d 2c99 8f3d
00000170: f8d5 c8bd 7808 5abd 5407 083d d0d6 90bc
00000180: 189b f03d 8273 d4bd 901f b73d 34a3 683d
00000190: 003e f43a 807e 603b 1020 fb3d 383e ecbc
000001a0: 30ee c6bd a0b8 dd3d 8ec2 fc3d 32c5 913d
000001b0: d87b 0d3d 7e4e ae3d 2c4d 5b3d 683c c2bc
000001c0: 2076 0bbd ac21 eebd f850 acbd 42ca d2bd
000001d0: c021 f7bb a40a 663d 2411 413d 94dd 843d
000001e0: 7238 98bd 34a5 44bd c8f8 bf3c f2db 833d
000001f0: 641e cf3d e816 babc ea85 b73d 2861 f93c
00000200: c6c3 893d 88e5 9d3c 5c3a e5bd 6462 503d
00000210: 6048 73bd a05b a4bb de49 b73d 20b9 943c
00000220: 6296 a23d bcb3 84bd 6872 fc3d 8071 f7bc
00000230: 3094 3ebd 36ec f33d 64db a33d 503b fd3c
00000240: 5c65 79bd a824 88bc b044 8abc a0bc e2bd
00000250: d840 a73d b044 14bc 88c4 febd e6db 993d
00000260: f8d5 91bd 28e5 56bd 10c4 1cbc c863 f83d
00000270: c84d 3bbd be81 e33d a8c5 cd3c f2a0 bbbd
00000280: 18fe ec3d 944f a6bd 30dc b73d 5ccb d4bd
00000290: ba9b db3d 1627 e6bd 504d 4a3d 80ed 0fbd
000002a0: 0064 c73b e41e a1bd f4c5 7ebd 3067 70bd
000002b0: 5e96 dabd 38d6 aa3d 44f6 e2bd 4e34 f53d
000002c0: 6029 ca3c f465 ac3d c876 8c3c 48d8 e1bc
000002d0: 0092 d2ba 4a44 aebd 584b 96bc e447 463d
000002e0: 78da a73c 54f7 5ebd bcdb 37bd e48f bfbd
000002f0: f827 6bbd fe72 fa3d 68a2 e2bd f21a 96bd
00000300: 60e3 a9bd 5ebc f7bd e8ea ab3c fafe c63d
00000310: e078 eabb 72e9 b7bd 3ca4 993d f8d2 f3bc
00000320: 4666 e53d 08fe fe3d 9232 f7bd c823 c6bc
00000330: 08a1 02bd 7cae ea3d 30b0 7b3d a895 4e3d
00000340: 986e 9ebc 4424 453d 8869 b5bc 967d ab3d
00000350: 1629 b2bd b8ed 4bbd 9079 c8bd e45e 6cbd
00000360: e820 ccbd 2ebd fbbd 5624 f0bd 02fa 80bd
00000370: a2f3 86bd 6c5e 7b3d 2c3b f5bd 007a debd
00000380: 566f cdbd e442 77bd b04b f2bd 4052 75bd
00000390: 1630 8bbd a091 3fbd 620f ab3d a048 e7bb
000003a0: c496 8e3d f0e3 563d 1078 563c 9c0c abbd
000003b0: d0b1 f83d d04a 693d 80ab 513d 50c3 a73c
000003c0: 80e6 5ebd 8ed2 c9bd 385d 193d a8ff d53c
000003d0: 8633 c63d 704b 3b3d 3ec8 84bd 62c0 b8bd
000003e0: 9ea4 b0bd 4448 d33d 9c28 303d 6422 56bd
000003f0: 0092 38bd 6027 86bc e036 12bc 7260 efbd

lstm.bias_hh_l0 f4 [256]
0.11114547 0.0007792264 0.07432686 0.008716866 -0.047169596 0.02565451 -0.044182837 0.0013076663
0.0290353 -0.07740827 0.0400189 0.05428569 -0.022512078 0.067644104 0.052847832 0.08684428
-0.099910825 -0.07590385 0.032438233 -0.026280463 0.01824592 -0.0073821247 0.1025576 -0.059071124
0.054398537 0.0072238743 0.060223714 -0.059504613 -0.0047554374 -0.09234446 0.049229622 0.0058744997
0.100042716 -0.07022047 0.044114828 -0.09742953 0.09401089 0.100539654 -0.007080853 -0.035625473
-0.027738735 -0.119062334 -0.006434262 0.06611505 -0.08039242 -0.07992782 -0.1080596 0.09055933
-0.062201902 -0.10776766 -0.08159417 0.10726699 -0.06381072 -0.03144762 -0.0832666 0.101153895
-0.04216072 0.041723594 0.0018319488 -0.1006562 -0.024757102 0.03605388 0.0637545 0.055421576
-0.109861374 -0.033606052 0.006887749 0.03824629 0.10753517 -0.02232705 -0.12262714 -0.023691237
-0.00083492696 0.070418194 -0.08701831 0.0899135 0.057789296 -0.06256038 0.008793011 0.1128954
0.02282323 -0.10173577 -0.015594259 -0.027384892 -0.10974237 0.10790382 0.04255268 0.076891154
-0.1237202 0.008436531 -0.058398664 0.05187276 -0.07173684 -0.042703077 0.09342325 -0.07013802
-0.008842632 -0.065445825 0.08389975 0.025611222 -0.07572767 -0.059566647 0.08496654 -0.10233097
0.0580547 0.12132959 0.11442265 -0.11141999 0.07593626 -0.10481979 0.08401948 -0.11073674
0.1156878 -0.032941103 -0.1023221 -0.123939976 0.03476858 0.040805727 0.034570307 0.08703725
-0.012151495 -0.010614321 0.120564625 -0.07806377 0.04728076 -0.05667837 0.026871175 0.04791206
-0.050577894 0.11638659 0.109994546 0.11257771 0.040888786 0.044736743 0.10695033 -0.081827715
-0.11487608 0.007487133 -0.04651852 -0.08401726 0.017930388 0.0203093 -0.103478834 0.12116487
0.055165246 -0.06853978 0.055160955 0.11758275 -0.023861334 0.040497497 0.091215864 -0.036659807
-0.037167013 -0.035160005 -0.04074052 0.06737818 -0.0947679 0.10229379 -0.053584144 -0.08147505
-0.095130354 0.08692707 0.10863301 0.060827807 0.12332934 -0.11395927 0.034045428 -0.0796909
-0.04853098 -0.112824365 -0.08180201 -0.0010051727 -0.11387004 -0.06381689 -0.10934587 -0.08112919
-0.079137534 -0.012161642 -0.09492171 -0.08311942 0.025426596 -0.0382607 0.06869431 -0.10217421
-0.10568175 0.03352897 0.07578914 0.03790325 -0.11241257 0.02265051 0.07223575 -0.040154368
-0.11181326 0.03256859 -0.0057950765 0.04915972 0.11122364 -0.09142478 -0.003703788 -0.040781856
-0.07764791 -0.03899616 -0.083388716 0.07749054 0.02297233 -0.045104533 -0.11491802 0.0408244
-0.112231135 0.084738344 0.018791422 -0.09965345 0.10971297 0.0986066 0.1181933 0.052613735
0.05622311 -0.046426997 -0.016089156 -0.118848085 -0.011510357 0.025372282 0.07681267 0.1232516
0.034439683 0.11240569 -0.065561846 0.019358516 -0.12427658 -0.07557069 0.12084314 -0.021461427
-0.06757665 -0.011209831 -0.048330247 0.090116724 0.108444855 0.11989483 -0.008400992 -0.078193635
-0.059447184 0.073395014 0.048344404 -0.03775935 0.012510136 -0.08695464 -0.053902417 0.11781584
0.09794225 0.049532056 0.014055103 -0.12026054 -0.07849944 0.113144666 -0.025382414 -0.06958042
00000000: 3ca0 e33d 0045 4c3a ae38 983d 30d1 0e3c
00000010: e834 41bd 6829 d23c 10f9 34bd 0066 ab3a
00000020: 70db ed3c 3a88 9ebd dcea 233d ac5a 5e3d
00000030: 406b b8bc fe88 8a3d f876 583d 6adb b13d
00000040: 0c9e ccbd 7a73 9bbd f4dd 043d 204a d7bc
00000050: 7878 953c c0e5 f1bb b809 d23d 90f4 71bd
00000060: 00d1 5e3d 40b6 ec3b 24ad 763d 1cbb 73bd
00000070: 80d3 9bbb 181f bdbd 00a5 493d e07e c03b
00000080: 32e3 cc3d c0cf 8fbd c0b1 343d 2289 c7bd
00000090: c888 c03d bce7 cd3d 8006 e8bb 04ec 11bd
000000a0: 583c e3bc f4d6 f3bd 80d6 d2bb 5467 873d
000000b0: c8a4 a4bd 32b1 a3bd 5a4e ddbd 2c77 b93d
000000c0: 6cc7 7ebd 4ab5 dcbd d81a a7bd ccae db3d
000000d0: 32af 82bd 38cf 00bd ae87 aabd c629 cf3d
000000e0: b8b0 2cbd 5ce6 2a3d 001e f03a d624 cebd
000000f0: 68cf cabc 3cad 133d b891 823d bc01 633d
00000100: 00ff e0bd 80a6 09bd a0b2 e13b 24a8 1c3d
00000110: 663b dc3d 38e7 b6bc f023 fbbd 2014 c2bc
00000120: 00df 5aba 6a37 903d a836 b2bd 9224 b83d
00000130: 78b4 6c3d a81f 80bd 9010 103c b435 e73d
00000140: c8f7 ba3c d85a d0bd 107f 7fbc 4856 e0bc
00000150: 9cc0 e0bd aefc dc3d b84b 2e3d 1c79 9d3d
00000160: 0461 fdbd 6039 0a3c 7033 6fbd 8878 543d
00000170: c4ea 92bd 6ce9 2ebd b054 bf3d 86a4 8fbd
00000180: b0e0 10bc 7608 86bd a2d3 ab3d a0ce d13c
00000190: 1c17 9bbd 28fc 73bd f002 ae3d e692 d1bd
000001a0: c4ca 6d3d a67b f83d 6c56 ea3d 2a30 e4bd
000001b0: 7884 9b3d c2ab d6bd 6812 ac3d f2c9 e2bd
000001c0: baed ec3d 40ed 06bd 408e d1bd 3ed4 fdbd
000001d0: 8069 0e3d e823 273d 9899 0d3d 9640 b23d
000001e0: 1017 47bc b0e7 2dbc 96ea f63d e6df 9fbd
000001f0: 78a9 413d 9427 68bd f020 dc3c 703f 443d
00000200: c42a 4fbd 185c ee3d d244 e13d 248f e63d
00000210: 007b 273d e03d 373d c608 db3d 4a95 a7bd
00000220: 2644 ebbd a056 f53b 348a 3ebd 3e11 acbd
00000230: c0e2 923c b05f a63c b6ec d3bd 4a25 f83d
00000240: f4f4 613d 965e 8cbd 74f0 613d 3acf f03d
00000250: d878 c3bc b4e0 253d 62cf ba3d 9828 16bd
00000260: 703c 18bd f003 10bd 88df 26bd 92fd 893d
00000270: ac15 c2bd 687f d13d 0c7b 5bbd 64dc a6bd
00000280: b4d3 c2bd d206 b23d fc7a de3d 9426 793d
00000290: 1894 fc3d 7a63 e9bd 3873 0b3d fc34 a3bd
000002a0: 6cc8 46bd 7610 e7bd d087 a7bd 00c0 83ba
000002b0: b234 e9bd 6eb2 82bd baf0 dfbd 1027 a6bd
000002c0: dc12 a2bd a041 47bc 5066 c2bd 843a aabd
000002d0: 704b d03c 40b7 1cbd 9aaf 8c3d b640 d1bd
000002e0: ac6f d8bd ac55 093d 5637 9b3d 7040 1b3d
000002f0: 9038 e6bd 908d b93c 56f0 933d e878 24bd
00000300: 5afe e4bd a466 053d a0e4 bdbb b45b 493d
00000310: 38c9 e33d ea3c bbbd 40bb 72bb e00a 27bd
00000320: de05 9fbd 70ba 1fbd b4c7 aabd 5cb3 9e3d
00000330: 7830 bc3c 88bf 38bd 245a ebbd 7c37 273d
00000340: 70d9 e5bd 4c8b ad3d 78f0 993c 1c17 ccbd
00000350: 32b1 e03d 42f2 c93d 540f f23d 8081 573d
00000360: 344a 663d 3c2a 3ebd 68cd 83bc a066 f3bd
00000370: f095 3cbc 88d9 cf3c f64f 9d3d 566b fc3d
00000380: a010 0d3d f434 e63d 4a45 86bd c095 9e3c
00000390: b884 febd cec4 9abd 9c7c f73d e0cf afbc
000003a0: a065 8abd 70a9 37bc f0f5 45bd 1e8f b83d
000003b0: 5618 de3d 6c8b f53d 50a4 09bc fc23 a0bd
000003c0: e47e 73bd 2050 963d c804 463d 8ca9 1abd
000003d0: 50f7 4c3c 4615 b2bd c8c8 5cbd 6e49 f13d
000003e0: f295 c83d 20e2 4a3d 6047 663c 284b f6bd
000003f0: 50c4 a0bd 64b8 e73d c8ee cfbc 2e80 8ebd

lstm.weight_ih_l0_reverse f4 [256, 32]
-0.011050671 0.02896221 0.05460599 -0.09519236 0.009189323 -0.03511329 0.011931255 0.051824316
0.100353524 -0.036954775 -0.054515183 0.01768896 0.12174624 0.052612394 0.06813569 -0.056093454
-0.098606855 0.027024671 0.015175685 0.07405427 -0.06288159 -0.0358686 0.07826632 0.11288665
0.0071107 0.043688416 0.015761122 -0.08296034 -0.030486852 -0.1006245 0.09745005 -0.086310774
-0.042507455 -0.0023618639 -0.043153107 0.11161812 -0.003433764 -0.005302012 -0.023174673 0.048785537
-0.024334311 0.08810906 0.031637654 0.063029945 0.12229085 0.10645132 -0.08685234 0.062650084
0.117272094 -0.04700309 0.084004626 0.07471131 0.08882615 -0.09070881 0.08306521 -0.0682767
-0.07744211 -0.012211457 0.0073921233 0.0042907447 0.10465588 -0.08405249 -0.010238871 -0.066940844
-0.048608527 -0.068276644 -0.042005002 -0.052411795 -0.09763643 0.11042601 -0.045176104 0.015267998
-0.08390926 -0.030936986 0.010979459 -0.085238025 -0.06270333 -0.055276424 -0.01414676 0.12233709
-0.040060118 0.05041404 0.039955854 0.03193119 0.10372917 -0.041135654 0.043297052 0.075911626
0.036846757 -0.09809129 -0.038271308 0.0032069087 -0.0363006 -0.08785932 0.046821937 0.11738001
0.028960526 -0.10105054 -0.11915347 0.061118692 -0.066017166 -0.10837579 0.10133733 -0.03843355
0.1027213 0.07740003 0.10235824 0.085240856 -0.08535753 -0.04632473 -0.015088573 0.044716656
0.1019503 -0.043914214 -0.08511652 -0.0981434 0.054338038 -0.056755662 -0.059057742 -0.045140386
-0.08718936 -0.0067587644 0.09380253 0.007372007 0.05408989 -0.07699406 0.11382979 -0.120621756
-0.11270805 0.09535153 -0.06902811 -0.11766921 0.05823496 0.105622515 0.04251945 0.032695055
-0.015999734 -0.01497525 0.087580755 0.03183019 -0.04944399 -0.026999623 -0.11606628 0.09915078
-0.113645986 -0.047698766 0.06499094 0.095495746 -0.06474592 0.109404266 0.0628209 -0.0670892
-0.019998312 0.108747244 0.1155815 -0.05675967 -0.101352945 -0.06826414 -0.12361489 0.059135333
0.08036165 0.041755304 -0.08766051 -0.014130861 0.014555961 0.017158896 0.0065972507 0.019180581
0.11370228 -0.04653056 -0.09624751 0.05714014 0.08728008 -0.11510506 -0.10597479 -0.05800137
-0.12121773 -0.10717352 -0.053842247 -0.02774541 0.066141576 0.11799385 0.00578703 0.0731563
0.0946355 0.010903329 -0.08616549 0.06802972 -0.009925202 -0.062404916 0.08339688 -0.07986219
-0.0763063 0.1018762 -0.028960451 -0.0901684 -0.09982726 -0.10927652 -0.07531531 -0.009467989
-0.010364234 0.09631002 0.11432399 0.08544555 -0.0035035163 -0.11636908 -0.036802396 -0.020647615
-0.12097663 -0.037057787 0.018301427 0.016703904 0.100305885 -0.06832631 -0.03693132 0.11112256
0.02950643 -0.10584921 0.08933644 -0.022888348 -0.07351105 0.056550995 0.11979984 0.08634451
-0.037024423 -0.12121688 0.11761995 -0.056349024 0.05710624 -0.059532583 -0.0663601 0.06336108
0.06381494 -0.016560644 -0.023200199 0.09279144 -0.055030033 -0.046857804 -0.12462899 -0.010533124
0.06581093 0.07543932 0.025173143 0.032536343 -0.08184622 0.09220098 -0.07101458 -0.05100611
0.07480836 -0.038412064 -0.053505346 0.059777156 0.073252246 -0.08946502 -0.017596647 0.1215585
00000000: e00d 35bc 2842 ed3c 88aa 5f3d 36f4 c2bd
00000010: d08e 163c f4d2 0fbd 507b 433c bc45 543d
00000020: 2686 cd3d e45d 17bd 504b 5fbd 70e8 903c
00000030: 1856 f93d 1880 573d ba8a 8b3d 40c2 65bd
00000040: 64f2 c9bd d862 dd3c 70a3 783c c4a9 973d
00000050: 10c8 80bd f4ea 12bd 184a a03d 1e31 e73d
00000060: e000 e93b a0f2 323d 781d 813c 1ce7 a9bd
00000070: 90bf f9bc 3814 cebd e493 c73d b4c3 b0bd
00000080: 4c1c 2ebd 80c9 1abb 50c1 30bd 0a98 e43d
00000090: 0009 61bb 80bc adbb d0d8 bdbc 58d3 473d
000000a0: c058 c7bc 8672 b43d 7c96 013d d815 813d
000000b0: a073 fa3d 2603 da3d a4df b1bd b04e 803d
000000c0: 5a2c f03d 5086 40bd 9e0a ac3d 3e02 993d
000000d0: 7cea b53d 8ac5 b9bd 181e aa3d a8d4 8bbd
000000e0: f899 9ebd 9012 48bc a039 f23b 6099 8c3b
000000f0: d255 d63d b623 acbd f0c0 27bc 4818 89bd
00000100: bc19 47bd a0d4 8bbd 700d 2cbd c0ad 56bd
00000110: 9cf5 c7bd 0827 e23d 940a 39bd a026 7a3c
00000120: 9ed8 abbd 906f fdbc 30e3 333c 4691 aebd
00000130: 9a6a 80bd 8869 62bd d0c7 67bc de8b fa3d
00000140: 1416 24bd f47e 4e3d c0a8 233d 48ca 023d
00000150: f66f d43d dc7d 28bd 4058 313d 8e77 9b3d
00000160: a0ec 163d 16e4 c8bd 60c2 1cbd 002b 523b
00000170: f0af 14bd 96ef b3bd 5cc8 3f3d ee64 f03d
00000180: a03e ed3c 96f3 cebd bc06 f4bd 9857 7a3d
00000190: 0234 87bd 20f4 ddbd f289 cf3d 806c 1dbd
000001a0: 8c5f d23d e883 9e3d 32a1 d13d c292 ae3d
000001b0: eecf aebd 00bf 3dbd 1036 77bc d028 373d
000001c0: 52cb d03d 64df 33bd 9251 aebd 68ff c8bd
000001d0: 9091 5e3d a078 68bd 88e6 71bd 20e5 38bd
000001e0: 5690 b2bd a078 ddbb 8a1b c03d e090 f13b
000001f0: 5c8d 5d3d 10af 9dbd 981f e93d 8a08 f7bd
00000200: 7ad3 e6bd aa47 c33d 9c5e 8dbd 8efc f0bd
00000210: c887 6e3d 9e50 d83d e028 2e3d 40eb 053d
00000220: e011 83bc c05a 75bc 8a5d b33d 6060 023d
00000230: c885 4abd 502e ddbc 28b4 edbd 900f cb3d
00000240: 3abf e8bd c85f 43bd f819 853d 4693 c33d
00000250: 8299 84bd 580f e03d 3ea8 803d 1066 89bd
00000260: 80d3 a3bc e0b6 de3d feb5 ec3d d47c 68bd
00000270: 2292 cfbd 12ce 8bbd ce29 fdbd e437 723d
00000280: a694 a43d 9c07 2b3d 5a87 b3bd 2085 67bc
00000290: 207c 6e3c d090 8c3c c02d d83b 9820 9d3c
000002a0: bedc e83d d496 3ebd 6a1d c5bd c80b 6a3d
000002b0: e6bf b23d 34bc ebbd 5009 d9bd d892 6dbd
000002c0: 0041 f8bd ca7d dbbd b089 5cbd 584a e3bc
000002d0: 3c75 873d c2a6 f13d 20a1 bd3b f8d2 953d
000002e0: 42d0 c13d e0a3 323c 8877 b0bd 2a53 8b3d
000002f0: 509d 22bc 4c9c 7fbd fccb aa3d ca8e a3bd
00000300: 7a46 9cbd 78a4 d03d 783e edbc 36aa b8bd
00000310: 3c72 ccbd 5ecc dfbd ea3e 9abd a01f 1bbc
00000320: c0ce 29bc 303e c53d b222 ea3d 14fe ae3d
00000330: 409b 65bb ea52 eebd 1cbe 16bd 3025 a9bc
00000340: 98c2 f7bd e8c9 17bd e0ec 953c a0d6 883c
00000350: 2c6d cd3d aaee 8bbd 4c45 17bd 3a94 e33d
00000360: 78b7 f13c 78c7 d8bd 06f6 b63d 5880 bbbc
00000370: f68c 96bd 04a2 673d 9e59 f53d 64d5 b03d
00000380: eca6 17bd 8e40 f8bd bae2 f03d 3cce 66bd
00000390: 3ce8 693d 70d8 73bd cee7 87bd 74c3 813d
000003a0: 68b1 823d 30aa 87bc 580e bebc 7009 be3d
000003b0: 2c67 61bd f8ed 3fbd 7c3d ffbd 2093 2cbc
000003c0: e2c7 863d ee7f 9a3d e837 ce3c d444 053d
000003d0: fe9e a7bd ded3 bc3d 1870 91bd c8eb 50bd
000003e0: 2035 993d f855 1dbd 6c28 5bbd e4d8 743d
000003f0: 4605 963d 7039 b7bd d826 90bc aaf3 f83d

lstm.weight_hh_l0_reverse f4 [256, 64]
0.027194932 -0.10309921 0.084989205 -0.12494135 -0.097495094 -0.114045665 0.04841818 0.06156808
0.0060470104 0.013952985 -0.05246581 -0.0553046 -0.06649585 0.010374114 -0.019213974 -0.11003342
0.052159414 0.08004308 0.04297772 -0.039168477 0.122486815 0.030413717 0.03663355 0.09115623
0.05115892 -0.015244558 0.106426194 -0.007602468 0.07317583 0.10175066 -0.0979532 0.014527708
-0.110728264 -0.08591385 0.01395084 0.059709415 0.03904724 0.08313373 0.027243271 0.025547639
-0.103754714 -0.098774984 -0.124824464 -0.014735237 -0.016611636 -0.053821504 0.0194875 -0.11020687
-0.070243075 -0.06375009 0.11057499 0.03839624 -0.046239987 -0.0002899021 -0.1242919 0.073365435
0.039817616 -0.06762329 -0.043480277 -0.08381422 -0.08891451 0.087892994 0.12190722 -0.04820618
-0.04042329 -0.07309517 -0.0516174 0.046376124 0.04118201 0.082929075 0.06315762 -0.042544678
0.11998367 -0.048404187 0.12354343 0.013946652 0.030183092 0.09763062 -0.11922774 -0.09257242
-0.017070428 0.020520449 -0.12217139 0.013912991 0.09806366 0.0400382 0.034867704 -0.0968231
0.07117958 0.09494007 0.05377233 0.119302094 -0.0048042536 0.048732683 -0.10212819 -0.039646626
0.03838712 -0.03213799 0.07189728 0.038894743 0.07656583 -0.013387725 -0.013087869 -0.09756848
0.030538887 0.05557637 0.04337655 -0.0065732 0.09230028 0.059316516 0.10419552 -0.1197547
-0.0028861165 0.120926306 0.08651866 -0.03633897 0.06959346 0.0011364967 -0.11273429 0.12043573
0.079411075 0.03134823 -0.11889118 0.038790956 0.08853221 0.07670885 -0.09020719 -0.001885727
-0.04568343 -0.03675653 0.03705409 -0.110975936 -0.021399379 -0.026123285 0.007940918 -0.007524848
0.08820136 0.0090532005 0.124785736 -0.047057092 -0.042078093 0.05936469 -0.015845776 -0.09361422
0.015188187 0.05485183 0.10079299 0.0043645203 -0.12010014 0.095950276 0.0791315 -0.09982513
-0.04675159 0.07339457 0.12317753 0.060507774 -0.062458172 0.010153994 0.065508276 0.023699299
0.049619675 -0.05208087 -0.021129519 -0.08424419 0.102656394 -0.07140379 -0.056320116 -0.07641046
0.096027 -0.0062560737 -0.07405555 -0.076604664 -0.0918317 0.018365026 -0.101401985 -0.12079741
-0.11826083 -0.049810022 0.010125294 0.022443905 -0.02438724 -0.04965639 0.12201662 -0.018869773
0.066337645 0.105312645 0.06850281 -0.088177845 0.0932861 -0.06387992 -0.096729115 0.027314425
0.060280487 -0.055346176 0.055367023 -0.10591379 -0.06486671 -0.09804581 0.11117248 -0.01202023
-0.08428261 -0.017187446 0.11229855 -0.083950445 -0.10703392 0.09430279 0.081680775 0.06204292
-0.08155221 -0.0538671 0.04787013 0.11351545 0.06971288 0.007409036 0.043232754 0.07325399
0.08075689 -0.0087142885 -0.113780156 0.02175361 -0.03345418 0.059808627 -0.053842634 0.11446418
0.011866957 -0.080777764 0.10831891 0.064669296 -0.008053064 -0.011559382 -0.08185257 0.011798829
0.039510608 0.011691213 -0.110210866 -0.10033475 0.11459409 -0.011985987 0.0051585883 -0.12480578
-0.07760182 -0.05027488 -0.11112161 0.020354018 -0.04441783 0.01285249 -0.02771987 -0.074263796
-0.06497635 0.07335508 -0.09215343 0.036959827 -0.099475235 0.0672832 -0.09745471 -0.04763834
00000000: e8c7 de3c ae25 d3bd d20e ae3d 40e1 ffbd
00000010: 82ab c7bd c690 e9bd 2452 463d d02e 7c3d
00000020: 0026 c63b 109b 643c 64e6 56bd 1487 62bd
00000030: fa2e 88bd 30f8 293c a066 9dbc 3459 e1bd
00000040: 1ca5 553d a0ed a33d 6809 303d 206f 20bd
00000050: 5eda fa3d 3026 f93c 100d 163d 1eb0 ba3d
00000060: 048c 513d 50c4 79bc faf5 d93d 201e f9bb
00000070: 36dd 953d a662 d03d b09b c8bd a005 6e3c
00000080: 80c5 e2bd 9af3 afbd 1092 643c dc91 743d
00000090: 00f0 1f3d 0442 aa3d 482d df3c 4849 d13c
000000a0: 5a7d d4bd 8a4a cabd f8a3 ffbd 106c 71bc
000000b0: 2015 88bc f073 5cbd 40a4 9f3c 24b4 e1bd
000000c0: 9adb 8fbd 688f 82bd 2475 e23d 6045 1d3d
000000d0: 2466 3dbd 00fe 97b9 c08c febd 9e40 963d
000000e0: cc17 233d 147e 8abd 6018 32bd caa6 abbd
000000f0: d018 b6bd 3e01 b43d 7eaa f93d d873 45bd
00000100: e492 25bd ecb2 95bd c46c 53bd e4f4 3d3d
00000110: 78ae 283d b8d6 a93d c858 813d 5443 2ebd
00000120: 00ba f53d 7843 46bd 5604 fd3d 8080 643c
00000130: 8842 f73c 90f2 c73d ac2d f4bd 9c96 bdbd
00000140: 48d7 8bbc 801a a83c fe34 fabd 50f3 633c
00000150: 9ad5 c83d 18ff 233d 70d1 0e3d 304b c6bd
00000160: 9ac6 913d f06f c23d 6040 5c3d a854 f43d
00000170: 006d 9dbb ec9b 473d 9628 d1bd 8064 22bd
00000180: d03b 1d3d 20a3 03bd e23e 933d 1850 1f3d
00000190: 8cce 9c3d 3058 5bbc 806e 56bc fcd1 c7bd
000001a0: b02c fa3c 0ca4 633d 9cab 313d 0064 d7bb
000001b0: ee07 bd3d e0f5 723d 7664 d53d f441 f5bd
000001c0: 0025 3dbb 36a8 f73d b230 b13d 2cd8 14bd
000001d0: 0487 8e3d 80f6 943a 3ce1 e6bd 02a7 f63d
000001e0: 46a2 a23d 0067 003d 387d f3bd 44e3 1e3d
000001f0: 6050 b53d 8819 9d3d 8cbe b8bd 802a f7ba
00000200: 8c1e 3bbd 048e 16bd 08c6 173d 5a47 e3bd
00000210: c04d afbc 8000 d6bc a01a 023c 0093 f6bb
00000220: eaa2 b43d e053 143c aa8f ff3d f0be 40bd
00000230: 145a 2cbd 6428 733d 00cf 81bc d0b8 bfbd
00000240: e0d7 783c 50ac 603d 8e6c ce3d 4004 8f3b
00000250: 10f7 f5bd 9481 c43d b20f a23d 1e71 ccbd
00000260: 987e 3fbd e44f 963d 8044 fc3d 00d7 773d
00000270: 24d4 7fbd f05c 263c 3429 863d 0825 c23c
00000280: 003e 4b3d c052 55bd d017 adbc 3888 acbd
00000290: 843d d23d 263c 92bd ecaf 66bd 167d 9cbd
000002a0: cea9 c43d c0ff ccbb 70aa 97bd e8e2 9cbd
000002b0: 4212 bcbd 4072 963c d8ab cfbd a264 f7bd
000002c0: bc32 f2bd 9805 4cbd 90e4 253c 48dc b73c
000002d0: c0c7 c7bc 8064 4bbd dae3 f93d c894 9abc
000002e0: 08dc 873d 28ae d73d 344b 8c3d 9696 b4bd
000002f0: c80c bf3d 7ad3 82bd ea19 c6bd 80c2 df3c
00000300: ace8 763d acb2 62bd 88c8 623d 54e9 d8bd
00000310: d6d8 84bd 3ecc c8bd 66ae e33d 80f0 44bc
00000320: 5c9c acbd b0cc 8cbc c8fc e53d 36ee abbd
00000330: 9a34 dbbd d221 c13d 4048 a73d b820 7e3d
00000340: d804 a7bd c0a3 5cbd 7813 443d ca7a e83d
00000350: a0c5 8e3d 80c7 f23b d414 313d 3006 963d
00000360: de63 a53d 60c6 0ebc 9205 e9bd a034 b23c
00000370: 4007 09bd e4f9 743d 188a 5cbd 326c ea3d
00000380: a06d 423c d06e a5bd 4ed6 dd3d 5671 843d
00000390: 00f1 03bc 9063 3dbc 52a2 a7bd e04f 413c
000003a0: e0d5 213d 808c 3f3c 3cb6 e1bd 4e7c cdbd
000003b0: 4eb0 ea3d e060 44bc 6009 a93b 2c9a ffbd
000003c0: b4ed 9ebd 08ed 4dbd ba93 e3bd 78bd a63c
000003d0: 78ef 35bd 4093 523c c814 e3bc 9e17 98bd
000003e0: 5212 85bd 303b 963d f0ba bcbd 3063 173d
000003f0: acb9 cbbd c6cb 893d 5696 c7bd 6c20 43bd

lstm.bias_ih_l0_reverse f4 [256]
0.0477881 0.05095689 -0.007302791 0.018584684 -0.06717384 0.047960505 -0.042605758 -0.12212163
0.034540087 -0.055870354 -0.07969518 -0.08515726 -0.0073069334 0.12197831 -0.012981892 -0.029712036
0.10788405 -0.0087194145 -0.06350538 -0.10175717 -0.0038259178 -0.11944021 -0.017294317 0.083634764
0.09287459 -0.062546596 0.109333396 0.04594481 0.027248085 0.0063079 -0.012750626 -0.055902183
0.11264135 -0.12262529 0.031882316 0.073847085 0.011619717 0.11305766 -0.06304985 -0.09915544
-0.11530541 0.031042293 -0.020591289 -0.029242411 0.07390115 -0.093201295 0.09729712 -0.028966054
0.06380859 -0.07734883 -0.053076908 0.03033556 0.0607927 0.037086338 0.11260004 0.050655738
-0.12010808 0.007247135 0.0007315129 0.075187504 -0.07632351 -0.011601865 -0.095960826 0.049015358
-0.10974656 -0.008949965 0.00047115982 0.07337883 0.12480268 -0.028864473 -0.04737109 -0.030953616
-0.021599859 0.113748 -0.099527925 -0.02781029 0.102627724 0.032209262 0.07919279 0.09086123
0.12417373 -0.045339108 -0.04308033 -0.024191022 0.066217735 0.013845786 -0.095118925 0.0973119
-0.12231676 0.00134556 -0.069932505 0.092492834 -0.035699353 -0.010920599 -0.12110254 -0.005050212
-0.10128586 -0.045076713 0.08076316 0.028460845 0.09797679 -0.07700388 0.057852417 -0.093624935
-0.021460906 -0.12049553 -0.113763556 0.101091936 -0.02055423 0.0533897 -0.062810406 -0.04522288
0.05711977 0.097773924 -0.08425188 -0.021455511 -0.083179936 0.08344403 0.041886687 -0.11537604
0.044527113 -0.015538305 0.013547927 0.07223779 -0.013342902 0.11162332 -0.0018547326 0.011951357
-0.09582493 -0.04689096 0.07499245 -0.1170118 0.0033057183 -0.12468895 -0.05781752 -0.028688625
-0.06663625 -0.023358405 -0.0070802867 -0.037271857 -0.03332238 0.043058053 -0.106533825 -0.12396021
-0.042137176 0.10364325 -0.080837235 0.12148963 -0.005067438 -0.10874538 0.019120991 0.08617592
0.08292547 -0.11715855 0.051683694 -0.11201869 -0.10553719 -0.0058321655 0.08554399 0.08669649
0.07676424 -0.06541322 0.026713401 0.10795881 -0.008943081 0.12244138 0.048124626 0.05855128
0.07329227 -0.117585704 0.07022652 -0.09208016 -0.07122189 -0.066143066 -0.06746188 -0.08596304
-0.065512285 0.016888872 0.044460326 -0.0011744499 -0.021593556 0.045183226 -0.014267355 -0.122244105
-0.061920166 -0.09819086 0.055299282 0.073144704 -0.09460546 -0.12108855 -0.10302636 -0.042817444
0.0005173832 0.027181774 -0.09496853 -0.008719131 -0.114573285 -0.04932742 0.014509961 -0.09348287
0.07694681 0.06673397 -0.0805375 0.11613929 -0.058038354 -0.04597138 2.169609e-05 -0.06899105
-0.1130327 -0.084558025 -0.09272981 -0.059223354 -0.06500165 0.026345715 0.013073564 0.07769504
-0.09536143 -0.031974405 -0.07515085 0.10849658 0.11998524 -0.11661352 -0.035834745 0.09019384
0.12231599 0.09222165 0.016258076 -0.09744011 0.016965672 -0.067009896 0.0025617331 -0.10069968
-0.0028110743 -0.051854357 0.071421534 -0.08229251 0.05621855 -0.12005024 -0.089313924 0.10558927
0.076999635 0.0150004625 -0.009137392 -0.06657173 -0.060732737 -0.11272681 0.123569384 0.025814757
0.067555726 -0.053740427 -0.07790871 -0.0059421062 -0.005949393 0.0538923 0.1244493 -0.06790914
00000000: 74bd 433d 2cb8 503d 404c efbb e83e 983c
00000010: 7092 89bd 3c72 443d 6083 2ebd e81a fabd
00000020: e879 0d3d 50d8 64bd 3a37 a3bd ee66 aebd
00000030: 006f efbb c4cf f93d 00b2 54bc a866 f3bc
00000040: 50f2 dc3d e0db 0ebc 1c0f 82bd 1066 d0bd
00000050: 40bc 7abb 129d f4bd d0ac 8dbc b448 ab3d
00000060: 0835 be3d 6e18 80bd 30ea df3d a030 3c3d
00000070: 6037 df3c 80b2 ce3b 00e8 50bc b0f9 64bd
00000080: 82b0 e63d f822 fbbd 0897 023d 243d 973d
00000090: a060 3e3c c68a e73d 4820 81bd 0212 cbbd
000000a0: 3e25 ecbd 684c fe3c 10af a8bc c88d efbc
000000b0: 7c59 973d 52e0 bebd b643 c73d 384a edbc
000000c0: 14ae 823d 1069 9ebd 2c67 59bd 4882 f83c
000000d0: c401 793d d8e7 173d da9a e63d 647c 4f3d
000000e0: 3afb f5bd 6079 ed3b 00c3 3f3a e8fb 993d
000000f0: 804f 9cbd c015 3ebc 1c87 c4bd 54c4 483d
00000100: cec2 e0bd e0a2 12bc 0006 f739 a447 963d
00000110: 8c98 ff3d 3075 ecbc 3008 42bd 7092 fdbc
00000120: 30f2 b0bc b6f4 e83d 4cd5 cbbd 68d2 e3bc
00000130: 7c2e d23d dced 033d d42f a23d 7415 ba3d
00000140: cc4e fe3d 80b5 39bd 0075 30bd 402c c6bc
00000150: 2a9d 873d 70d9 623c b6cd c2bd 764b c73d
00000160: 3681 fabd 805d b03a c638 8fbd e26c bd3d
00000170: 7c39 12bd 50ec 32bc 9c04 f8bd 407c a5bb
00000180: f66e cfbd 5ca2 38bd 2867 a53d b826 e93c
00000190: 0ea8 c83d 36b4 9dbd a8f6 6c3d 6ebe bfbd
000001a0: c8ce afbc 5cc6 f6bd defc e8bd 4a09 cf3d
000001b0: 5861 a8bc 28af 5a3d bea2 80bd a03b 39bd
000001c0: 6cf6 693d b23d c83d 408c acbd 78c3 afbc
000001d0: 3e5a aabd b4e4 aa3d 6091 2b3d 464a ecbd
000001e0: 1062 363d 6094 7ebc 20f8 5d3c 68f1 933d
000001f0: 309c 5abc c49a e43d 801a f3ba a0cf 433c
00000200: dc3f c4bd bc10 40bd a495 993d e2a3 efbd
00000210: c0a4 583b ec5c ffbd 10d2 6cbd 6804 ebbc
00000220: 9678 88bd 205a bfbc c001 e8bb 60aa 18bd
00000230: 0c7d 08bd a45d 303d 682e dabd dade fdbd
00000240: 0898 2cbd ea42 d43d fe8d a5bd 8ecf f83d
00000250: c00c a6bb e6b5 debd a0a3 9c3c 007d b03d
00000260: d4d4 a93d d2f0 efbd 48b2 533d 0e6a e5bd
00000270: e223 d8bd c01b bfbb b031 af3d ee8d b13d
00000280: 9236 9d3d 5ef7 85bd 10d6 da3c 8219 dd3d
00000290: 0086 12bc 8cc2 fa3d 541e 453d 78d3 6f3d
000002a0: 421a 963d c6d0 f0bd ecd2 8f3d 8694 bcbd
000002b0: c8dc 91bd 0476 87bd 7429 8abd 640d b0bd
000002c0: 4e2b 86bd 885a 8a3c 081c 363d 00f0 99ba
000002d0: f8e4 b0bc 0c12 393d a0c1 69bc 1e5b fabd
000002e0: 00a0 7dbd 4a18 c9bd 8081 623d e4cc 953d
000002f0: 82c0 c1bd 46fd f7bd 7cff d2bd 5861 2fbd
00000300: 00a1 073a 50ac de3c dc7e c2bd b0da 0ebc
00000310: 66a5 eabd 8c0b 4abd 30bb 6d3c f273 bfbd
00000320: 4a96 9d3d d2ab 883d d8f0 a4bd 70da ed3d
00000330: a0b9 6dbd 7c4c 3cbd 0000 b637 2e4b 8dbd
00000340: b07d e7bd c22c adbd 20e9 bdbd 3094 72bd
00000350: 961f 85bd f8d2 d73c 8032 563c 941e 9f3d
00000360: da4c c3bd 98f7 02bd b0e8 99bd 7433 de3d
00000370: d2ba f53d 12d3 eebd 74c7 12bd 8cb7 b83d
00000380: ce80 fa3d b4de bc3d a82f 853c ae8e c7bd
00000390: 98fb 8a3c 7c3c 89bd c0e2 273b a23b cebd
000003a0: 003a 38bb 3c65 54bd 7445 923d fa88 a8bd
000003b0: 6c45 663d e6dc f5bd 38ea b6bd 303f d83d
000003c0: fcb1 9d3d 80c4 753c 00b5 15bc c256 88bd
000003d0: e4c2 78bd 50dd e6bd f211 fd3d 7879 d33c
000003e0: a85a 8a3d ec1e 5cbd 9a8e 9fbd 00b6 c2bb
000003f0: 20f3 c2bb 2cbe 5c3d 46df fe3d f213 8bbd
