src/main/runs/exp133_net_16_16_32_32_64_convs_diff_ep_100_SIG-167/weights/last.pt (torch, 976358 bytes, 66 tensors)

bn.weight f4 [64]
000000 82 2e 79 3f ba cc 93 3f 23 73 9d 3f a8 1f 86 3f
       0.9733659 1.1546853 1.2300762 1.0478411
000010 fd a2 92 3f 3b 9b 97 3f f5 47 86 3f c2 e5 84 3f
       1.145599 1.1844248 1.049071 1.0382617
000020 80 37 89 3f 6d 02 92 3f 15 e9 99 3f 31 d2 87 3f
       1.0720062 1.140699 1.2024256 1.061102
000030 a7 b7 88 3f c9 13 8d 3f 1d cc 84 3f c2 1a 96 3f
       1.0681046 1.1021663 1.037479 1.1726916
000040 b4 46 82 3f 98 a0 8a 3f 62 a1 8e 3f 18 91 8c 3f
       1.0177827 1.0830259 1.1143 1.0981779
000050 15 d5 96 3f 6e 98 80 3f fc ff 8c 3f f8 35 8f 3f
       1.1783777 1.0046518 1.101562 1.1188345
000060 71 35 8c 3f 91 2b 89 3f 99 db 8a 3f 7b 09 83 3f
       1.0953809 1.071642 1.0848266 1.0237268
000070 62 60 84 3f 7a d1 80 3f df d0 98 3f c0 27 9a 3f
       1.0341914 1.0063927 1.1938742 1.2043381
000080 42 1f 81 3f 2d af 91 3f af bd 95 3f c9 2e 88 3f
       1.0087664 1.1381584 1.1698512 1.0639278
000090 3e 04 99 3f 92 d3 82 3f 0d 7a 89 3f 0c 02 96 3f
       1.195442 1.0220816 1.0740372 1.1719375
0000a0 27 10 95 3f 7b c0 8a 3f dd 25 83 3f 4a b7 80 3f
       1.1645554 1.083999 1.024593 1.0055935
0000b0 42 18 7a 3f 0c b0 9a 3f ad 7c 84 3f cc 2c 85 3f
       0.97693264 1.2084975 1.0350548 1.0404296
0000c0 6b 34 93 3f a9 83 88 3f 42 55 93 3f db b6 61 3f
       1.1500372 1.066518 1.1510394 0.8816964
0000d0 5d 9d 7c 3f e5 d8 86 3f 04 31 93 3f 48 f2 82 3f
       0.9867762 1.0534941 1.1499333 1.0230188
0000e0 80 52 8b 3f 35 9b 8f 3f 7b 1f 85 3f d2 1f 80 3f
       1.0884552 1.121924 1.0400232 1.0009711
0000f0 46 8d 88 3f e1 7c 76 3f c6 ec 75 3f 22 7a 8a 3f
       1.0668113 0.962843 0.9606441 1.0818522

bn.bias f4 [64]
000000 a6 c4 8b ba 00 1a 81 bd a1 aa 43 be e3 e7 01 bd
       -0.0010663464 -0.06303787 -0.19108059 -0.031715285
000010 5e 86 d7 bc ed 73 19 3e e5 98 63 3d 6e 01 bd 3d
       -0.026309188 0.14985628 0.055565733 0.09228788
000020 50 5d 46 3c 68 21 c8 3d 9d 7d 20 be ca de 7f bd
       0.012107208 0.09771997 -0.15672918 -0.062468328
000030 21 38 9d 3d 9b 8d ca bc d8 02 60 3c 7f 45 63 bd
       0.07676721 -0.024725726 0.013672553 -0.0554862
000040 4d 89 48 bd d1 fa 8a bd 7a 56 b7 bd e0 df 7c bb
       -0.048959065 -0.06786121 -0.08952041 -0.0038585588
000050 56 e9 11 3e 92 0a 76 3c b1 84 ff bd f1 12 94 3c
       0.14249167 0.015017169 -0.12476481 0.018075438
000060 5e 65 03 bd 66 e6 81 bd ec 81 96 bd 6b 24 03 bc
       -0.032079093 -0.06342773 -0.073489994 -0.008004288
000070 d5 0e 66 bd 14 2e da 3c dc 10 21 be 52 3e 2e be
       -0.05616649 0.0266333 -0.15729088 -0.17015961
000080 d4 48 95 bc a4 41 e7 bd 85 82 df 3d 70 5b c6 3c
       -0.018223204 -0.11291817 0.109135665 0.024213523
000090 5b 6c 4f bd a6 b7 ba bc 51 bd e8 bb b5 81 0a 3e
       -0.050640445 -0.022792649 -0.0071026464 0.13526042
0000a0 71 1f bb 3d b0 1d 50 3d 35 14 e4 bd f3 a1 c0 bd
       0.09136856 0.050809562 -0.11136667 -0.09405889
0000b0 00 49 e7 3c 9c c3 23 be ff 5f cc bc 57 3c c8 bc
       0.028233051 -0.15992588 -0.024948118 -0.024442835
0000c0 60 e5 3e 3e 73 19 3c 3d 48 41 16 3e e8 69 dc bd
       0.18642187 0.045922708 0.1467334 -0.107623875
0000d0 55 8e 82 3d 72 90 09 3d 59 98 10 be ca c2 63 bd
       0.06374804 0.03358502 -0.14120616 -0.055605687
0000e0 3f 88 98 bd 98 10 f5 3d 59 af 7e bd ca 67 58 3d
       -0.07447862 0.11966056 -0.062178943 0.052833356
0000f0 af f1 47 3d 42 63 5a 3d 6f db 3c 3d 54 24 c6 3d
       0.04881447 0.053317316 0.046107706 0.09674898

bn.running_mean f4 [64]
000000 cd 1d bd bd aa 52 0e bd 27 05 04 3e 7f 83 6a bd
       -0.092342 -0.034746803 0.1289259 -0.05725431
000010 3b a2 32 3d d5 37 15 be ab e8 0e be ad 39 26 be
       0.043611746 -0.1457208 -0.13955943 -0.16232939
000020 fd db f4 bc 19 b8 05 be 64 14 f6 3d c5 7b b2 bb
       -0.029890055 -0.13058509 0.12015608 -0.0054468834
000030 72 9e 28 be 26 92 e8 bc a9 7e 07 be 3f 4a 23 bd
       -0.16466692 -0.028390002 -0.13231911 -0.03986573
000040 14 c8 a1 3d 4d 90 80 3b d1 9e 9f 3d e0 c9 ef bc
       0.0789949 0.003923452 0.07793964 -0.029271066
000050 ff ce 16 be 87 9a 6d bd 4b 9f ab 3d fc b5 7c bd
       -0.147274 -0.058008697 0.08379992 -0.06169699
000060 76 1b b2 3d 25 b0 a4 3d 4b 38 cb bc e7 62 06 bd
       0.08696644 0.080414094 -0.024807116 -0.032809164
000070 fc b8 56 3d 87 13 d7 bd 89 a3 3e 3d 99 08 74 3d
       0.05242251 -0.105017714 0.046542678 0.059578512
000080 e2 3d 8a bc f9 40 85 3d 16 9f 54 bd cb 32 63 bc
       -0.016875211 0.06506533 -0.05190953 -0.01386709
000090 ba 23 bf bc fb 26 b2 bc 10 cd 7d 3c 19 69 8d bd
       -0.023332465 -0.021747103 0.015490785 -0.069048114
0000a0 05 4b 8b bd bd 14 af bd cc 07 29 bc d3 0e 6f bd
       -0.06801418 -0.085488774 -0.0103168 -0.058363747
0000b0 33 83 1d 3d 0d 56 28 3d b2 58 04 be 19 0d f1 bc
       0.0384552 0.04109769 -0.1292446 -0.02942519
0000c0 48 5c 11 be 32 b5 1b be 6b 20 f4 bd 2a ec 57 bd
       -0.14195359 -0.1520584 -0.11920246 -0.052715458
0000d0 d9 74 37 bd c2 77 01 be 1c 92 27 3d bc 11 02 bd
       -0.04478917 -0.1264334 0.040910825 -0.031755194
0000e0 3c f1 82 bc 33 da 12 be 33 cc 8c 3d fb 5b 1e bd
       -0.01598417 -0.14341049 0.068748854 -0.03866194
0000f0 1b b8 d1 bd 80 e7 7b bd 87 ed a6 bd 81 7d fe bd
       -0.102401935 -0.061500072 -0.081507735 -0.12426282

bn.running_var f4 [64]
000000 46 a6 5b 3f 78 86 54 3f a5 4b 12 3f 79 2a 5d 3f
       0.8580059 0.83017683 0.57146674 0.86392933
000010 5c b7 69 3f ba ec 37 3f d5 7a 42 3f c0 c5 31 3f
       0.9129541 0.7184559 0.75968677 0.6944237
000020 5e 97 54 3f 55 e4 21 3f e0 2f 2b 3f 46 63 75 3f
       0.8304347 0.6323903 0.66869926 0.95854604
000030 a0 d4 32 3f 93 2b 6b 3f 21 a7 44 3f be ef 6d 3f
       0.6985569 0.91863364 0.7681752 0.9294394
000040 e3 f5 62 3f 58 33 72 3f 21 b1 2e 3f 43 f2 72 3f
       0.88656443 0.94609594 0.6823903 0.9490091
000050 1e 61 34 3f 86 b9 d6 3b 89 0c bf 3b 2b 15 1c 3c
       0.7046069 0.006552878 0.0058303517 0.009526531
000060 eb 09 84 3b b9 56 be 3b 35 e4 b1 3b 34 24 be 3b
       0.0040295026 0.005808678 0.0054288157 0.0058026556
000070 5f 7b 19 3c 8b e1 db 3b d1 a0 f2 3b 66 ec e4 3b
       0.009367793 0.0067102364 0.0074044247 0.0069861887
000080 09 9d d1 3b 14 24 55 3c 33 5b f7 3b 63 93 05 3b
       0.006396894 0.01300909 0.0075487136 0.0020382039
000090 85 4a 1e 3c bb c7 b3 3c 1e 74 16 3c 39 95 9d 3b
       0.0096613215 0.021945825 0.009182958 0.0048090485
0000a0 ff 69 33 3c bd c7 97 3b 37 df e0 3d b8 58 18 3c
       0.010950564 0.004631965 0.10980075 0.009298496
0000b0 47 88 81 3d 45 60 52 3b 48 3d 95 3d 8e 85 36 3d
       0.06324821 0.0032100838 0.07287079 0.04456096
0000c0 84 81 bb 3c 90 f7 cc 3c 0c 6b 47 3c 1c 2d 38 3e
       0.022888906 0.02502039 0.012171518 0.17985958
0000d0 74 3b 39 3d e9 6c 54 3d 00 fc 87 3b 29 c2 bb 3c
       0.045222715 0.051861677 0.004149914 0.022919731
0000e0 f3 0d a9 3b 09 c9 8c 3c 1d e0 7d 3c d9 22 d8 3d
       0.0051591336 0.017185705 0.015495327 0.10553522
0000f0 8b c0 72 3c e9 35 a9 3c 86 88 be 3c db d9 d1 3c
       0.014816414 0.02065559 0.023258459 0.025616577

lstm.weight_ih_l0 f4 [256, 64]
000000 a0 7c a7 3c d6 8e 8f 3d 00 97 d7 bc 2e 63 8c 3d
       0.020445168 0.07009666 -0.02631712 0.068548545
000010 d8 ba 17 bd 80 26 38 3b e8 de f8 3d 38 26 99 3d
       -0.037043422 0.002809912 0.12151891 0.07477993
000020 60 e9 c6 3b 20 9e 0f bd 5c a6 f1 3d fe 06 f4 bd
       0.006070301 -0.03506291 0.11799309 -0.11915396
000030 60 96 c2 3d 80 50 b8 ba c8 8d ae 3c b8 99 38 bd
       0.09501338 -0.0014062077 0.021307841 -0.045068473
000040 10 5d d0 3d 00 9c d0 ba f4 d6 2f 3d f0 3e ef 3d
       0.10174 -0.0015915632 0.042929605 0.11681926
000050 06 af c7 bd 98 3c 7e 3d a4 2f 57 3d d8 4f 04 3d
       -0.0975018 0.062069505 0.052535668 0.032302707
000060 c0 52 1e 3d 50 07 68 bd c4 71 d8 3d 96 9f b1 3d
       0.038653135 -0.0566476 0.10568574 0.08673017
000070 e0 1f 01 bd 1e 7b b1 bd c0 ee 01 bb 6c 12 e7 3d
       -0.03152454 -0.08666061 -0.0019826144 0.112828106
000080 f4 33 7b bd 80 7e bf 3b e8 8a e0 bc c8 b5 1d bd
       -0.061328843 0.0058439374 -0.027409986 -0.03850344
000090 74 6b 10 3d 2c ec 7f 3d 48 e2 ec bc 10 6a 34 3d
       0.035258725 0.06248109 -0.028916493 0.04404646
0000a0 00 8f 9d 3b c0 7b 13 3b 42 57 eb 3d ac ad 3c 3d
       0.0048083067 0.002250418 0.114912525 0.046064064
0000b0 a4 5b cd 3d 42 0b 96 bd fc 02 fe bd c0 3a 29 bd
       0.10027245 -0.07326366 -0.12402913 -0.041315794
0000c0 fc f3 2e bd cc fe 3c bd aa a3 c3 3d 20 8f e4 bd
       -0.04271315 -0.04614143 0.09552701 -0.111601114
0000d0 88 28 df 3d 10 79 fa bd 34 b3 d2 bd fc 1f 7d 3d
       0.108964026 -0.12230122 -0.102880865 0.06179808
0000e0 c4 5e 3b bd a0 51 90 3c 92 15 aa bd b8 e0 97 3d
       -0.045744672 0.017617047 -0.083048955 0.074159086
0000f0 c4 a4 a8 3d b0 be 15 bc 90 0e 0d bc 4c f9 be 3d
       0.082345515 -0.009139702 -0.008609429 0.09324893
000100 6c 51 7e bd 10 52 b4 3d 7a 14 9b bd f6 36 f5 3d
       -0.06208937 0.08804715 -0.07572265 0.119733736
000110 40 13 c4 bc 46 66 9c 3d f8 58 2a bd d6 a1 ad 3d
       -0.02393496 0.076366946 -0.041588753 0.084781334
000120 f8 d1 91 bc 6c 1e 2b bd 30 2f b5 bd f0 b4 20 bd
       -0.017800316 -0.04177706 -0.08846891 -0.039235055
000130 5c 52 0d 3d 02 6c ed bd 2a 33 a4 3d 24 8b 70 bd
       0.034502372 -0.115928665 0.08017571 -0.058726445
000140 20 a8 9c 3d cc 6d e1 bd d8 5f 8c 3d 00 01 55 3c
       0.07649255 -0.1100727 0.06854218 0.013000727
000150 d0 8f d8 3c 2e 52 c0 3d 0c 17 b0 3d 78 0d 30 3d
       0.026435763 0.093906745 0.08598146 0.042981595
000160 40 60 30 bb ac 57 c5 bd f6 c7 d5 bd c0 29 e0 bc
       -0.0026912838 -0.09635863 -0.1043853 -0.027363658
000170 90 e0 fa bc 3c 6d bf bd f0 6f b8 bc 72 c7 cb bd
       -0.030624658 -0.09347007 -0.022514313 -0.099501505
000180 80 e5 6e 3b 06 0d cf 3d e0 ff e2 bb 28 60 b0 bc
       0.003645271 0.10109906 -0.0069274753 -0.021530226
000190 d6 da 96 bd 90 c7 31 bc 48 c8 e6 bd 02 91 d3 3d
       -0.073659584 -0.010850802 -0.11268669 0.103303924
0001a0 ca 82 ec bd e0 05 76 bd 38 0b 7b 3d 00 c9 4c bb
       -0.115483835 -0.060064197 0.061289996 -0.0031247735
0001b0 00 26 7c 3d b6 48 be bd 00 eb 92 3a bc da 3d bd
       0.061559677 -0.09291212 0.0011208951 -0.04635118
0001c0 c4 49 0f 3d 70 6b ca bc 66 c7 8c bd 44 21 4d bd
       0.034982458 -0.024709433 -0.0687397 -0.050080553
0001d0 c4 b0 92 3d 90 16 e7 bd f0 9e a1 3d 30 99 0e 3d
       0.071626216 -0.112836 0.07891643 0.03481406
0001e0 20 cd 7a 3d 6c b5 95 bd c0 20 0c bd 0e 27 8d bd
       0.06123078 -0.07309994 -0.03421092 -0.06892215
0001f0 40 31 4e 3d e0 c8 22 3d 1c 31 25 bd 3c 93 95 bd
       0.050339937 0.03974235 -0.040330037 -0.07303473
000200 b8 cc 15 bd c0 b2 b3 3b c0 db 80 bb 90 e6 f9 bd
       -0.03657219 0.005483955 -0.0039324462 -0.122021794
000210 2c 35 c8 3d 60 e0 2a 3c dc 92 5a 3d a8 00 b2 bd
       0.09775767 0.010429472 0.053362712 -0.086915314
000220 2c 79 a8 3d 80 a5 c9 3b 44 de ba bd 48 b6 4f 3d
       0.08226237 0.0061537623 -0.09124425 0.050710946
000230 04 eb 61 bd b0 13 d0 bd dc 61 2a bd b4 47 d8 bd
       -0.05515577 -0.10160005 -0.041597232 -0.10560551
000240 80 48 c4 ba c4 d3 17 3d 00 4e a8 b9 0e d2 da 3d
       -0.001497522 0.03706719 -0.00032101572 0.10684596
000250 48 bc 4c bd f0 ed e7 3c c8 e4 a9 bd 70 b4 e5 3d
       -0.049984246 0.0283117 -0.0829559 0.11216056
000260 00 25 39 ba 8c 6b 68 bd 10 c8 4e 3d 0e 0b d5 3d
       -0.00070627034 -0.05674319 0.050483763 0.10402499
000270 14 68 d8 3d 7e 03 c8 3d f8 55 0b bd 10 38 2c bc
       0.10566726 0.09766291 -0.034017533 -0.010511413
000280 3c fa 56 bd b0 ae 0e 3d de 48 a3 3d b8 22 8a 3c
       -0.052484736 0.034834564 0.07972883 0.016862258
000290 f0 0a 37 bd 84 21 e0 3d 40 d7 ec bd 6c d9 4d 3d
       -0.044688165 0.109438926 -0.11564493 0.050256178
0002a0 fe 57 97 bd 96 52 84 3d c8 c5 15 3d e0 9f 82 bc
       -0.0738983 0.064610645 0.036565572 -0.015945375
0002b0 72 c0 97 bd c8 c8 13 3d 4a c6 d2 bd 3a 83 9f 3d
       -0.07409753 0.03608015 -0.10291727 0.07788701
0002c0 d8 fd cc 3c f4 ff 0d 3d 70 8c 57 bd 68 7f 7d 3d
       0.025023386 0.034667924 -0.052624166 0.061889082
0002d0 42 43 89 bd 00 56 30 3b 48 65 d7 bc 98 74 9a bc
       -0.067022815 0.0026906729 -0.026293412 -0.018854424
0002e0 98 20 69 bd 40 53 72 bc ac 3d f1 bd 60 8e 58 3c
       -0.05691585 -0.014790356 -0.11779341 0.013217539
0002f0 0e 05 ee 3d 00 10 6b b8 fa 30 f0 3d 00 54 57 3c
       0.11622058 -5.6043267e-05 0.117280915 0.013142586
000300 50 db 6b bd 08 c9 9c 3d 80 d5 04 bc 10 15 d3 bc
       -0.0575822 0.07655531 -0.008107543 -0.02576688
000310 a0 30 dc bb bc 07 bf 3d 64 c0 f2 3d 00 fd f1 ba
       -0.0067196637 0.09327647 0.11853102 -0.0018462241
000320 e8 e9 f2 bd 80 13 3f 3d 70 5f d9 3c 22 e1 cd bd
       -0.1186102 0.046649456 0.026534766 -0.10052706
000330 50 c8 13 bc 44 a5 d0 bd 60 be 9f bd fc 9c 40 bd
       -0.009019926 -0.10187772 -0.07799983 -0.047024712
000340 c0 43 3f bd ee d1 b8 3d 42 e2 d3 bd 38 21 4b 3d
       -0.04669547 0.09024416 -0.1034589 0.049592227
000350 c0 74 c4 3c 98 4c e4 bc 90 35 d9 bd 60 2f 89 bc
       0.023981452 -0.027868554 -0.10605919 -0.016746223
000360 96 f2 ca 3d 00 df 97 3d 62 61 bd bd 8c cf fb bd
       0.09909551 0.07415581 -0.0924709 -0.12295446
000370 80 e5 59 3b f0 ba 0f 3d 58 1c cb 3c 4c af 35 3d
       0.0033248365 0.035090387 0.024793789 0.04435663
000380 00 0a b8 bd 7c 5d d7 bd 1a e4 ec 3d 00 ea cc 3d
       -0.08986282 -0.105158776 0.115669444 0.100055695
000390 cc 26 4c bd 56 e8 8a 3d 04 a2 f8 3d da ff 90 3d
       -0.049841687 0.06782596 0.12140277 0.0708005
0003a0 18 92 a9 3c 70 9c cc 3c da e2 ef bd 40 d9 8d bc
       0.020699546 0.024976939 -0.117131904 -0.017315507
0003b0 54 02 59 bd d2 25 a9 bd 32 16 e3 bd da 80 d7 3d
       -0.052980736 -0.08259167 -0.11088218 0.10522623
0003c0 08 57 1c 3d 00 db 25 3a 96 88 f5 3d e0 42 db 3c
       0.038168937 0.0006326884 0.11988942 0.026765287
0003d0 ae 85 fa 3d 0c e1 e7 3d 3c 25 41 3d a0 c6 69 bd
       0.122325286 0.11322221 0.04715465 -0.05707419
0003e0 a2 58 ce 3d 6a 3c d7 bd 6e 59 92 3d e0 1a 3a 3d
       0.10075499 -0.1050957 0.071459636 0.045435786
0003f0 08 45 b5 3c 0c 7c 04 bd 9c 58 02 3d 08 a4 f5 bd
       0.022127643 -0.032344863 0.031822786 -0.11994177

lstm.weight_hh_l0 f4 [256, 64]
000000 14 e7 1d 3d 5c 94 dd 3d 30 a4 7d 3d 98 a3 95 bd
       0.03855045 0.10819313 0.06192416 -0.07306594
000010 68 f8 b7 bd a2 84 8f 3d c0 81 08 3d c0 92 f2 bd
       -0.089829266 0.070077196 0.033326864 -0.118443966
000020 d2 2c 94 bd 98 97 e0 bd 38 57 91 bc 64 ee 79 bd
       -0.07235111 -0.10966414 -0.017741784 -0.061018363
000030 d0 84 73 3d 68 a9 d2 3c ce 08 80 3d c0 71 ec bb
       0.05945283 0.025715545 0.06251679 -0.0072157085
000040 6a f1 fe 3d e0 46 d6 bd ea 20 fc bd a0 51 bd 3d
       0.1244839 -0.10462737 -0.12310965 0.09244084
000050 7c e6 3c bd d0 f9 99 bd 1c 32 cd 3d 7e 88 98 bd
       -0.046118245 -0.07518351 0.10019323 -0.07447909
000060 84 32 93 3d ca 07 f3 3d 6e e3 a7 bd be b9 97 bd
       0.071873695 0.1186672 -0.08197676 -0.074084744
000070 92 98 a4 3d e0 7c 20 bc 8c c5 65 bd a4 ff d5 bd
       0.08036913 -0.0097953975 -0.0560966 -0.1044915
000080 b2 9a a2 3d c0 1b 13 bd 00 b2 b5 bc 66 24 b9 3d
       0.07939662 -0.035915136 -0.022179604 0.090401456
000090 90 99 e0 3d f8 35 ab 3d 34 8c c2 3d 10 d2 28 bc
       0.1096679 0.08359903 0.09499398 -0.010303989
0000a0 50 fd c5 bc 3c 9b e9 bd a8 b0 af 3c 98 c1 c7 3c
       -0.02416864 -0.11406562 0.021446541 0.024384305
0000b0 12 4c f9 3d d4 ff 1c 3d 18 f6 55 3d c8 93 80 bc
       0.121727124 0.038329914 0.052236646 -0.015695468
0000c0 2c 90 ba 3d dc c4 60 3d 60 c2 18 3d 88 02 de bd
       0.0910953 0.05487524 0.037294745 -0.108403265
0000d0 04 36 04 bd 98 dc ae 3c b0 1e 8b 3d e0 f9 95 3b
       -0.032278076 0.021345422 0.067929626 0.0045769066
0000e0 ba 18 f4 bd 54 61 89 bd 00 6e 37 bd 48 ea 1f 3d
       -0.11918779 -0.06708017 -0.04478264 0.039041787
0000f0 78 71 42 bd b6 2c c0 bd 00 3d 4e bc d0 a9 10 3c
       -0.047471493 -0.09383528 -0.012587786 0.008829549
000100 78 49 97 3c 5a be af 3d 62 d1 85 3d 50 5f 69 3c
       0.01846765 0.085812286 0.06534077 0.014243916
000110 ae a7 f6 bd c8 43 dd 3d 08 61 7f bd 40 8c 02 bd
       -0.12043701 0.10803944 -0.062348396 -0.031872034
000120 4a 36 d1 bd 88 2d 21 3d 00 cf 19 3d e0 ed b7 bc
       -0.10215433 0.039350063 0.037550926 -0.022452295
000130 3e 6c 86 bd b8 b4 94 bd 94 49 02 3d 7a a9 95 bd
       -0.06563614 -0.07261032 0.03180845 -0.07307716
000140 10 4f 28 3c 60 2f b5 3c c0 6a ff 3c 9a 7c f1 3d
       0.010272756 0.022117317 0.031178832 0.11791344
000150 e4 c9 10 3d 6a e8 be 3d 20 3f 0e bc 8e 0c c1 3d
       0.035348788 0.09321673 -0.008682042 0.09426223
000160 d2 a5 e7 3d 00 05 65 bc f6 6e ae 3d 40 a2 07 bd
       0.113109246 -0.013978243 0.08517258 -0.033113718
000170 98 67 f0 3d 20 91 c9 3b 92 0e 92 3d f0 e5 12 3c
       0.11738509 0.0061513335 0.07131685 0.008965954
000180 38 a4 de 3d 8c 37 b4 3d 26 4f cd 3d 9e 6e c5 3d
       0.10871166 0.08799657 0.10024862 0.09640239
000190 d8 d8 a4 bc bc 70 56 3d be 26 bc 3d e0 7a 83 3d
       -0.02012293 0.052353606 0.09187077 0.06419921
0001a0 74 5d 58 bd 90 8e c9 3d ec 44 2b 3d 50 54 6d 3c
       -0.0528235 0.09841645 0.041813776 0.014485434
0001b0 70 a7 58 bd ee aa 9a 3d 80 15 7a 3d 62 16 fd bd
       -0.052894056 0.075521335 0.06105566 -0.12357785
0001c0 56 ea cd 3d d8 ab 35 3d 98 cf 8b 3d 5c be 18 3d
       0.10054462 0.044353336 0.06826705 0.037290916
0001d0 e0 29 f9 3d cc 9a 86 bd a0 ec 07 3d aa 2b f6 bd
       0.1216619 -0.06572494 0.033184648 -0.12020047
0001e0 26 63 c5 bd 18 ac f5 3d 0e 72 ff 3d 70 0d b0 bd
       -0.09638052 0.11995715 0.12472926 -0.08596313
0001f0 aa 2b ad bd c4 29 79 bd 8a d8 9d bd 40 37 c0 3b
       -0.08455594 -0.060830846 -0.07707317 0.0058659613
000200 fe d5 cc bd 60 1e 80 3b 54 dd 21 bd 44 b9 83 3d
       -0.10001753 0.003909871 -0.039517716 0.06431821
000210 00 3d 03 3b 54 e9 d6 bd 28 1b 84 bd e0 c5 e7 3d
       0.0020025373 -0.104937226 -0.06450492 0.113170385
000220 aa 8d fc 3d 98 1a e9 bc 4c 5f 6f bd 10 4e 6b bd
       0.12331708 -0.028455064 -0.05844049 -0.057447493
000230 b0 b2 19 bc 2c df 7c bd 98 ce bb bc de 25 ab bd
       -0.009380981 -0.06173627 -0.02292566 -0.08356832
000240 a0 c5 4d bc 4a 16 97 bd e0 19 fa 3b 08 24 d2 3c
       -0.0125593245 -0.07377298 0.007632479 0.025651947
000250 20 ac b6 bc 34 37 e5 bd 9c e8 1d 3d e6 c7 9a bd
       -0.022298872 -0.1119217 0.03855191 -0.07557659
000260 d4 b2 26 bd 5e 1e a1 3d 30 4f ea bc 7c 3f 02 3d
       -0.040697888 0.0786712 -0.028602213 0.031798825
000270 9c ab b4 bd 5a 8c a7 bd ae 05 d9 3d 50 e9 71 3c
       -0.088217944 -0.08181067 0.105967864 0.014765099
000280 92 01 a6 3d 44 28 11 3d c2 35 eb bd 32 2f 80 3d
       0.08105768 0.03543879 -0.11484863 0.06259002
000290 9c 4a d0 3d ec af c6 3d f0 13 d8 3d 04 51 75 3d
       0.101704806 0.09701523 0.10550678 0.059891716
0002a0 c0 c0 76 3b e6 35 b9 bd 68 5f 73 3d a0 a9 df bd
       0.003765151 -0.090434834 0.05941716 -0.10921025
0002b0 7e 64 92 3d c4 65 b9 bd fe 3c a5 bd ae 7d e3 3d
       0.071480736 -0.090526134 -0.08068274 0.11107956
0002c0 50 38 ab bd 80 e6 2e bd a8 f6 be bc 8a c4 e6 bd
       -0.0836035 -0.04270029 -0.023310974 -0.112679556
0002d0 00 d9 4c bd 90 80 9d 3d c8 a1 8c bd 88 61 ff bd
       -0.050011635 0.07690537 -0.06866795 -0.124697745
0002e0 f0 ee c7 bc c8 a9 10 bd 40 5f 95 bd 94 88 ba bd
       -0.024405926 -0.035318166 -0.07293558 -0.091080815
0002f0 46 93 8f bd cc 3e e9 bd d4 be 31 bd ea c9 e4 bd
       -0.07010512 -0.11388931 -0.04339488 -0.111713246
000300 6c fb 52 bd ae b5 c3 bd 3a 2f 81 3d f6 ef cd bd
       -0.051509306 -0.09556137 0.06307836 -0.100555345
000310 f0 65 e2 3c 10 34 ed 3d 4a 70 ff 3d 98 19 46 3d
       0.027636498 0.11582196 0.12472589 0.04836425
000320 64 00 df 3d 6c 96 a6 bd e0 33 43 3c b8 f7 8e 3d
       0.108887464 -0.081341594 0.011914223 0.06980842
000330 dc 75 a4 bd d8 f6 91 3d c0 bc 96 3c 68 70 d4 bd
       -0.080302924 0.0712716 0.01840055 -0.10373002
000340 10 33 4d 3d 44 9c 0f 3d 2c 6a a8 bd bc 17 76 3d
       0.050097525 0.035061136 -0.08223376 0.06008123
000350 a0 7e d7 bc 60 29 fd bd a2 86 92 bd ea f3 fd 3d
       -0.026305497 -0.12361407 -0.071545854 0.124000385
000360 f4 01 33 bd 14 e5 ab 3d 24 ab e8 3d f0 48 4f 3c
       -0.043703035 0.083933026 0.113607675 0.012651667
000370 30 9e f7 bc 9a 20 a8 3d 08 58 88 bd 6a 56 fe bd
       -0.030226797 0.08209343 -0.06657416 -0.12418826
000380 0c 6b 23 bd b0 d3 60 bc 6c 0b 5f bd 3c e2 d2 bd
       -0.03989701 -0.013722345 -0.054454252 -0.10297057
000390 62 a4 99 bd 00 54 4e 3a 34 e3 63 3d a4 f2 c4 3d
       -0.07502057 0.00078707933 0.0556366 0.096165925
0003a0 fa c2 94 3d e6 f8 9e bd 20 f6 68 3d 44 40 ff 3d
       0.07263751 -0.07762317 0.056875348 0.124634296
0003b0 40 a7 4b bc 68 8e a4 3c 50 8b c7 bc a0 2f e0 3d
       -0.012430012 0.020087436 -0.024358422 0.10946584
0003c0 ec c1 4c bd 38 da 26 bd fc b0 f4 3d f0 99 79 bd
       -0.049989626 -0.040735453 0.119478196 -0.060937822
0003d0 6e 94 a6 3d ac dc 67 bd 8c 14 88 bd 16 08 ca 3d
       0.081337795 -0.056606933 -0.06644544 0.098648235
0003e0 70 57 7b 3c 28 32 d7 bd 3c c0 b6 bd 40 88 9f bb
       0.015340671 -0.105076134 -0.089233845 -0.004868537
0003f0 98 3d 76 3d c0 40 30 bb 38 f7 5d bd e0 2d 19 3d
       0.060117334 -0.0026894063 -0.054190844 0.037397265

lstm.bias_ih_l0 f4 [256]
000000 80 cd 2b bc 6a 6b 98 3d 94 ad a0 3d e2 8f 97 bd
       -0.010486007 0.074423626 0.078456074 -0.0740049
000010 02 7c e0 3d 9a dc 82 3d 5c d1 1b 3d 74 a7 22 3d
       0.109611526 0.06389733 0.038041458 0.039710477
000020 b8 72 b4 bd a0 15 59 3d c0 b0 be bd f0 3d 41 bd
       -0.08810943 0.05299914 -0.09311056 -0.04717821
000030 90 66 66 bd ee 96 a9 3d f8 9a 97 3c 0c 5a 82 bd
       -0.056250155 0.08280741 0.018506512 -0.06364831
000040 cc f7 a9 bd ae b6 f0 bd a8 69 f9 bc c8 99 d2 bd
       -0.08299217 -0.117535934 -0.030445889 -0.10283238
000050 0c 40 15 3d 38 1f 8c bc 90 e9 df bc e0 35 a5 3d
       0.036438033 -0.01710473 -0.027333051 0.080669165
000060 4e 96 a0 bd ec a4 88 3d e8 bc 6c bd 1e c6 d1 bd
       -0.07841168 0.06672081 -0.057797343 -0.10242866
000070 88 95 64 3d 42 51 ed bd 64 f4 01 3d 72 a3 9a 3d
       0.055806667 -0.11587764 0.03172721 0.07550706
000080 aa 0f 8d 3d e8 27 44 3d 30 ad 98 3d 8c 03 e2 bd
       0.06887753 0.04788962 0.07454908 -0.11035833
000090 80 a1 32 bc a4 d4 04 3d 44 67 18 bd e6 1b f5 3d
       -0.010902762 0.032429352 -0.037207857 0.11968212
0000a0 62 e9 db 3d 20 64 4d bd e6 24 89 3d d4 b3 85 3d
       0.107378736 -0.050144315 0.06696491 0.0652844
0000b0 90 21 68 bc ce ee d0 bd ac 96 36 bd 7c 6b 9b bd
       -0.014168158 -0.102017984 -0.044577286 -0.075888604
0000c0 68 35 ad bd 84 43 a7 bd a6 65 af 3d f8 7c b7 bc
       -0.08457452 -0.081671745 0.0856431 -0.022398457
0000d0 50 d9 b0 bc 8e 66 b0 bd a8 7e df bc 24 3b 70 3d
       -0.021587998 -0.08613311 -0.027282074 0.05865015
0000e0 62 cc ee 3d 10 b9 58 bd e8 86 6c bd f2 b9 9a 3d
       0.11660077 -0.052910864 -0.057745844 0.075549975
0000f0 a0 38 fc 3c bc a2 da 3d 92 f0 d4 bd 38 8c f4 3c
       0.03078872 0.1067557 -0.10397448 0.029852018
000100 40 53 55 bc 30 de 70 3d 70 90 3e bc b0 ee 58 3c
       -0.013020337 0.058805645 -0.011631116 0.013240501
000110 18 b6 b2 bc 7a 5c f0 bd 84 5c 6b bd 66 1a 9b 3d
       -0.021815345 -0.117363885 -0.057461277 0.075733945
000120 26 48 d5 3d e0 bb a5 3b 04 8b 88 3d e8 58 b3 3c
       0.10414152 0.005057797 0.0666714 0.02189298
000130 20 38 84 bc 84 91 01 bd d8 fc de bc f4 b6 1a 3d
       -0.016140044 -0.031632915 -0.027220175 0.037772134
000140 d4 54 7a bd 2e 8b ca bd e2 ad fa bd 40 40 39 3b
       -0.061116055 -0.09889828 -0.12240197 0.0028267056
000150 40 8e f9 3d 74 45 73 3d c0 98 e4 3b b0 de e3 3c
       0.12185335 0.059392408 0.006976217 0.027816147
000160 e8 e3 bf 3d de f8 ad bd f4 3d eb bd 8e fd 90 bd
       0.093696415 -0.08494733 -0.11486426 -0.07079612
000170 94 7c e6 3d f8 ec c4 bd 6c c5 b3 3d 68 92 b1 3d
       0.1125423 -0.09615511 0.087778896 0.08670503
000180 b8 ee f7 bd 20 a1 96 3c 00 c0 bb 3b 80 76 54 bb
       -0.12106079 0.018387377 0.0057296753 -0.0032419264
000190 8e 83 ed 3d d4 d0 21 bd d4 07 3d 3d 00 56 d8 ba
       0.11597358 -0.039505795 0.046150044 -0.0016505122
0001a0 42 a0 eb bd 0a c9 fb bd 0c c6 53 3d d8 cb 9c bd
       -0.11505176 -0.122942045 0.051702544 -0.076560676
0001b0 40 03 23 3b cc 4a 43 bd 52 33 f8 bd 46 c3 d3 3d
       0.0024873763 -0.047678754 -0.121191636 0.1033998
0001c0 f0 ce c3 bd 0a 43 de bd e8 a6 9e 3d 90 1b 4c 3c
       -0.095609546 -0.108526304 0.077466786 0.012457743
0001d0 5c ce ff bd 6c 3a b8 bd ce 94 cf 3d b0 31 3a bc
       -0.12490532 -0.08995518 0.10135804 -0.0113643855
0001e0 8c 1e 02 3d 90 53 2c 3c da 23 9d 3d 20 4b 67 3d
       0.031767413 0.01051797 0.07672854 0.05646813
0001f0 fe b7 8e 3d cc 95 b4 3d 60 a6 77 3d 5c 5c f0 bd
       0.069686875 0.08817634 0.060461402 -0.11736366
000200 48 b7 f3 bd 50 1d f4 3d 50 ac 06 3c 60 93 bd bd
       -0.119001925 0.119196534 0.008219793 -0.09256625
000210 00 3e f0 bd 70 10 79 bc de 29 86 3d 70 3d 36 3d
       -0.117305756 -0.015201673 0.06550954 0.044492185
000220 a0 7f 63 bc 38 61 52 bd 6e 7d c8 bd a2 50 9b bd
       -0.013885409 -0.051362246 -0.09789549 -0.07583739
000230 a8 a6 0f bd f0 38 57 bd a8 86 de bd e8 c9 77 3d
       -0.035071045 -0.052544534 -0.108655274 0.060495287
000240 96 02 ab 3d e0 ea e9 3c d0 b7 25 bd 30 b3 92 bc
       0.083501026 0.02855438 -0.0404585 -0.017907709
000250 50 44 ab 3d 6c de 5b 3d e4 ce 2b 3d 08 27 ba 3c
       0.08362639 0.053678915 0.041945353 0.02272369
000260 c4 d4 8e bd 60 b3 af 3c 4c e5 61 3d e0 23 df bd
       -0.069741756 0.021447837 0.055150315 -0.108955145
000270 00 cd 49 3c c0 fe a9 3d c2 17 a1 3d 00 41 98 bc
       0.012316942 0.08300543 0.078658596 -0.018585682
000280 9a 7c a1 bd 8c 1a 4a bd 20 8e 6c bc 80 9f 75 3c
       -0.07885094 -0.049341723 -0.014438182 0.014991641
000290 10 d2 00 bc 70 f6 c2 bc 42 75 fa 3d 9a 2a ed bd
       -0.007862583 -0.023799151 0.122293964 -0.11580391
0002a0 50 d5 54 3d e0 12 7e 3d b2 c8 b1 3d c2 a8 d9 bd
       0.051961243 0.06202972 0.08680858 -0.10627891
0002b0 32 20 c2 bd 90 27 c6 3c 8a d5 b0 3d 50 e6 fc bc
       -0.09478797 0.024188787 0.08634479 -0.03087154
0002c0 02 26 91 3d 52 71 9c 3d 18 aa e1 3d dc 8f 65 3d
       0.070873275 0.07638802 0.11018771 0.056045398
0002d0 a8 ec 90 bc 00 6d 09 ba e4 df 79 3d c0 20 d8 3c
       -0.017690971 -0.00052423775 0.061004534 0.026382804
0002e0 20 c6 12 3c 00 a4 29 bd 50 7a 8b 3d 40 b1 2f 3c
       0.0089583695 -0.04141617 0.06810439 0.010723412
0002f0 10 6e 53 3c c0 fe 04 3b 0e 28 e6 bd a4 9f 53 bd
       0.012904659 0.0020293444 -0.112381086 -0.051665917
000300 40 ae 46 3d 88 d1 21 bd a8 cd a5 3d 84 cc 03 3d
       0.04850602 -0.039506465 0.080958664 0.032177463
000310 1c fa 48 bd 2c a4 e4 bd ec 31 af bd d0 be b3 bc
       -0.049066648 -0.11164126 -0.08554444 -0.021941572
000320 d4 da b6 3d 80 b1 c4 3c 50 6c 8b 3d 92 58 c0 bd
       0.08928457 0.02401042 0.06807768 -0.093918934
000330 08 4c 1f 3d 18 7c 99 bc 7c 6f eb bd b0 78 e1 bd
       0.03889087 -0.01873593 -0.11495873 -0.110093474
000340 d0 a6 0d 3c 0c 13 c4 bd 08 9a c1 bc 44 ac ce 3d
       0.008645728 -0.095739454 -0.023633018 0.10091451
000350 c0 19 50 3d 5a 1e bc 3d 9c 2a 6c bd a6 b3 bb bd
       0.050805807 0.091854766 -0.057657823 -0.091651246
000360 e8 06 ab bc 98 73 eb 3d 80 ae 36 3c 9c 84 36 3d
       -0.020877317 0.11496657 0.0111500025 0.04456006
000370 b8 a2 b3 3d f2 75 e9 bd ac f3 2b bd 32 3c a1 3d
       0.087712705 -0.113994494 -0.04198043 0.078728095
000380 5c 22 cc bd ca b2 bc bd f0 d7 a9 bd 70 72 f9 bc
       -0.09967491 -0.09213789 -0.0829314 -0.030450076
000390 28 cc c9 bd 6a 75 f0 3d 92 4e bc 3d 70 43 9a 3c
       -0.09853393 0.11741145 0.091946736 0.018830985
0003a0 78 f3 b9 3c d0 d6 11 3c 7a 7e f8 bd b8 9d a1 bc
       0.022699103 0.008901313 -0.121334985 -0.019728526
0003b0 4c 5f 26 bd 06 d1 d5 bd 00 1a 9a bd a8 0f 4f bd
       -0.040618226 -0.10440259 -0.0752449 -0.05055204
0003c0 44 09 bc bd fe 69 e6 3d 34 ad e8 3d ba 92 e6 3d
       -0.09181455 0.11250685 0.11361161 0.112584546
0003d0 48 17 92 bc 82 3b e8 3d aa 5f f1 bd 4e 23 b9 bd
       -0.017833367 0.11339475 -0.117858246 -0.09039937
0003e0 5c 7e 87 3d b0 7b 09 bc 20 66 ce 3d 68 d7 c2 bd
       0.06615898 -0.008391306 0.100780725 -0.09513742
0003f0 c4 c8 7b 3d dc c5 4e 3d 00 2f a5 bd 38 e5 c7 3d
       0.061470762 0.050481662 -0.08065605 0.09760517

lstm.bias_hh_l0 f4 [256]
000000 9c c7 b7 3d 30 f7 e6 bd b4 d9 ef 3d 00 83 37 ba
       0.08973619 -0.11277616 0.117114455 -0.00070004165
000010 0c 0c 70 3d 30 44 5a 3c f0 b8 98 3d 84 c2 41 3d
       0.05860524 0.013321921 0.07457149 0.047304645
000020 5a 48 87 3d a0 68 23 bd b0 69 d4 3d 1e a7 b9 bd
       0.06605597 -0.0398947 0.10371721 -0.09065078
000030 ba 21 87 3d c0 53 4f bd 40 07 ab 3b 12 cb 8d 3d
       0.0659823 -0.05061698 0.00521937 0.06923498
000040 20 2f aa bb 80 4b d8 bb d4 6d 0a bd 48 f1 98 bd
       -0.005193606 -0.006600797 -0.033796147 -0.07467896
000050 08 00 fe bc 00 ef 75 bb 78 4f 03 3d cc f4 08 3d
       -0.031005874 -0.0037526488 0.03205821 0.03343658
000060 44 da 26 bd 08 62 84 3d e4 d2 50 bd 78 c7 ba 3d
       -0.040735498 0.064640105 -0.05098237 0.09120077
000070 98 5c e9 3d 7e 5a 8c bd c0 6e ed 3c f2 a8 e6 bd
       0.11394614 -0.068531975 0.028983474 -0.112626925
000080 02 1a e4 bd 5c 7a c5 3d 82 aa 95 bd 86 55 e0 3d
       -0.11137773 0.09642479 -0.073079124 0.10953812
000090 0e 8b fd 3d d8 3f 6d 3d fe 90 b4 bd 64 ba 13 3d
       0.12380038 0.057922214 -0.088167176 0.036066428
0000a0 f4 92 a3 3d 52 b0 be 3d 20 9e c5 3c 54 4c d0 3d
       0.079870135 0.09310974 0.024123251 0.101708084
0000b0 f4 7b f5 bd c8 6a c9 3d b6 14 c7 3d 7c c7 03 bd
       -0.11986533 0.0983482 0.09720747 -0.032172665
0000c0 fa ad 80 bd 6a 6d a9 3d b0 c1 62 bd e0 b0 c2 3d
       -0.062831834 0.08272822 -0.055360496 0.095063925
0000d0 b8 6c 10 3d 8c fb b4 3d 48 25 c6 bc c0 d3 7e bd
       0.035259932 0.08837041 -0.024187699 -0.06221366
0000e0 3c 41 b3 3d b0 6a f2 bd d0 09 c6 3d 00 4f c7 3a
       0.08752677 -0.11836755 0.0966984 0.0015206039
0000f0 f8 4a b2 3c c6 6d e1 3d 48 ef fb bd ac 84 75 3d
       0.021764264 0.11007266 -0.12301499 0.05994098
000100 4c b6 2c 3d fa 74 8b 3d 3e 4b d8 3d 7e ae 8f bd
       0.04216604 0.06809421 0.10561226 -0.070157036
000110 4c 71 1e bd 8c bc 68 bd 90 8c 04 3d cc 82 01 bd
       -0.038682267 -0.056820437 0.032360613 -0.03161888
000120 80 f7 04 bc a0 59 b8 3c b0 2e 6f bc 0c e1 8a 3d
       -0.008115649 0.022503674 -0.0145985335 0.067812055
000130 fc 85 01 3d 2c 10 5f bd 14 83 9e bd 90 2e c8 3c
       0.031621918 -0.054458782 -0.07739845 0.024436265
000140 e0 ed e6 bd 48 60 e8 3c 00 a8 8c 3b 40 59 49 bc
       -0.1127584 0.028366223 0.004292488 -0.012289345
000150 bc 5b cf bd 00 f1 ce bc e8 c5 0f bd 04 29 32 bd
       -0.10124919 -0.025261402 -0.035100847 -0.043496147
000160 3a 1a d1 bd a8 65 d3 3c 90 37 51 3d 3c c7 f1 3d
       -0.102100804 0.02580531 0.05107838 0.11805579
000170 78 29 ed 3c e2 e9 ce 3d b0 9a c1 bd 40 5a b3 3b
       0.028950438 0.10103203 -0.094533324 0.005473405
000180 b0 5c 42 bd c0 13 c8 3c 10 86 a9 3c 3a 4f d6 3d
       -0.047451675 0.02442348 0.020693809 0.1046433
000190 00 85 73 bd c2 a6 c0 bd e8 5e 4d 3d 9c 67 13 3d
       -0.05945301 -0.094068065 0.050139338 0.03598748
0001a0 b2 da c7 3d 18 75 ae 3d 14 4b 34 3d c0 27 65 bc
       0.0975851 0.085184276 0.044016913 -0.013986528
0001b0 d0 95 ca bd c0 06 91 bb d4 87 fc 3d b2 9c 9f 3d
       -0.09891856 -0.0044258535 0.12330595 0.07793559
0001c0 e0 aa e3 bd 46 68 dd 3d 7c 4d 9c 3d c0 85 40 3b
       -0.11116576 0.10810904 0.076319665 0.0029376596
0001d0 34 d1 f4 3d 90 36 7c bc 16 96 a1 bd aa ba cd 3d
       0.11953965 -0.015393868 -0.07889955 0.10045369
0001e0 90 0b 36 3c f0 03 3e bc 10 c4 9e bc a4 17 43 3d
       0.011111155 -0.011597618 -0.0193806 0.047629967
0001f0 18 56 c5 3d 58 40 c7 3c 82 f8 c3 3d 80 38 d9 3d
       0.09635562 0.024322674 0.095688835 0.1060648
000200 c0 60 f9 bd e8 97 8c bd 14 c3 d2 bd 92 a2 c8 bd
       -0.12176657 -0.06864911 -0.102911144 -0.09796633
000210 00 05 d8 3d d8 41 ee 3d 00 24 2f 39 8a cc c7 bd
       0.10547829 0.116336524 0.00016702712 -0.097558096
000220 24 68 2e bd e4 8f eb bd fa f5 d0 3d 78 19 64 3d
       -0.042579785 -0.11502054 0.10203166 0.05568835
000230 fc 6e 3c 3d d8 81 48 bd d6 c3 89 3d 80 69 8e bd
       0.04600428 -0.048951954 0.06726806 -0.06953716
000240 e0 93 5c 3c b6 0e ba bd 00 9b 04 3a de 12 a0 bd
       0.0134629905 -0.09084837 0.0005058497 -0.07816099
000250 24 2a 02 bd 54 00 1b 3d e0 fc 5e 3d 24 3b 7a bd
       -0.03177847 0.03784211 0.05444038 -0.061091557
000260 06 84 ab bd b6 f0 e1 3d 78 fb f8 3d a8 5f d8 bd
       -0.08374791 0.1103224 0.12157339 -0.1056512
000270 c8 57 83 bc 4c 64 7c bd 7e bc f3 bd be 11 ce bd
       -0.016033068 -0.061619088 -0.119011864 -0.10061978
000280 80 38 90 3b 48 b4 02 3d 80 cb 37 3d 40 8d 90 bc
       0.0044012666 0.03191021 0.044871807 -0.017645478
000290 9e 4a 8c bd e4 91 d9 3d 10 cd f8 3d 50 1f 25 bd
       -0.068501696 0.106235296 0.121484876 -0.040313065
0002a0 96 3b db bd 38 15 d6 bc ec d0 8a 3d f0 47 44 bd
       -0.107047245 -0.026133165 0.0677813 -0.047920167
0002b0 e8 0e fb 3d 88 c4 e0 bd 10 d9 31 3d 78 53 b0 bc
       0.122587025 -0.10974985 0.043419898 -0.021524176
0002c0 44 48 05 3d 58 82 41 bd 30 72 b1 3d e4 c1 d5 bd
       0.03253962 -0.047243446 0.08664358 -0.10437372
0002d0 d2 38 9a bd d8 24 51 3d a2 04 86 3d d0 da 9d 3d
       -0.07530369 0.051060528 0.065438524 0.07707751
0002e0 80 e2 93 bb 38 e8 5b bd f2 0e a9 bd 62 b4 e9 bd
       -0.004513085 -0.053688258 -0.08254804 -0.114113584
0002f0 a0 61 b5 bb 44 0c b8 bd 9e f5 f0 3d 22 fd 8e bd
       -0.0055353194 -0.089867145 0.11765598 -0.06981875
000300 a6 6e 98 bd 68 d3 b4 bc 4a ab e1 3d a6 fb ed 3d
       -0.074429795 -0.022073463 0.11018999 0.11620264
000310 6c f5 4c bd b2 d6 84 bd 50 a6 cd bd 64 06 c5 bd
       -0.05003874 -0.064862624 -0.10041487 -0.096203595
000320 00 e4 69 39 b8 cc 87 3d c8 05 c3 3d 10 d4 0c bc
       0.00022305548 0.06630844 0.09522587 -0.0085954815
000330 c0 71 d8 3b f0 47 63 3d 54 bb 8f 3d ac 3a 86 3d
       0.006605357 0.055488527 0.07018152 0.065541595
000340 52 0a f9 3d 16 96 99 bd c4 79 45 3d 04 b8 9f bd
       0.121601716 -0.0749933 0.048211828 -0.0779877
000350 00 f4 ca 3b 6c 12 ec 3d 60 07 01 bc 5a 51 92 bd
       0.006193638 0.11526951 -0.0078752935 -0.07144423
000360 48 c2 f6 bc 86 2c a4 3d c4 c2 d3 bd e4 bd a1 3d
       -0.030121937 0.08016305 -0.10339883 0.07897547
000370 a0 fd 0e bc 9a ba bc 3d 40 2c e4 3b e0 bd f0 bc
       -0.008727461 0.09215279 0.006963283 -0.029387414
000380 f0 f1 0d 3c 80 b4 22 3c 90 43 9d bd 0a 85 d3 bd
       0.008663639 0.00993073 -0.07678902 -0.103281096
000390 50 a7 b0 bc c2 ff ed 3d c2 80 df 3d be fc ec 3d
       -0.021564156 0.116210476 0.109132305 0.11571644
0003a0 5a 1a 89 bd 74 62 2d bd c4 17 cc bd 54 a8 ff 3d
       -0.06694479 -0.04233022 -0.099654704 0.12483278
0003b0 b0 cb a7 3c cc 2e ce 3d d8 da cb bd a4 bb b2 bd
       0.020482868 0.100675195 -0.099538505 -0.08727196
0003c0 6e 89 96 3d 80 f3 69 3b 1a d5 f5 bd de 32 a6 3d
       0.073504314 0.0035698116 -0.120035365 0.08115171
0003d0 e0 98 ed 3d e0 54 b0 3b 12 71 cc 3d 90 fe f4 bd
       0.11601424 0.0053812116 0.09982504 -0.119626164
0003e0 38 81 27 bd 28 28 96 3c ec 6c 67 bd 08 33 7e 3d
       -0.040894717 0.018329695 -0.05650036 0.062060386
0003f0 38 65 99 3c 88 ea 6c bd 44 a7 8c bd 08 eb e6 3d
       0.018725023 -0.057840854 -0.06867841 0.112752974

lstm.weight_ih_l0_reverse f4 [256, 64]
000000 e8 c7 de 3c ae 25 d3 bd d2 0e ae 3d 40 e1 ff bd
       0.027194932 -0.10309921 0.084989205 -0.12494135
000010 82 ab c7 bd c6 90 e9 bd 24 52 46 3d d0 2e 7c 3d
       -0.097495094 -0.114045665 0.04841818 0.06156808
000020 00 26 c6 3b 10 9b 64 3c 64 e6 56 bd 14 87 62 bd
       0.0060470104 0.013952985 -0.05246581 -0.0553046
000030 fa 2e 88 bd 30 f8 29 3c a0 66 9d bc 34 59 e1 bd
       -0.06649585 0.010374114 -0.019213974 -0.11003342
000040 1c a5 55 3d a0 ed a3 3d 68 09 30 3d 20 6f 20 bd
       0.052159414 0.08004308 0.04297772 -0.039168477
000050 5e da fa 3d 30 26 f9 3c 10 0d 16 3d 1e b0 ba 3d
       0.122486815 0.030413717 0.03663355 0.09115623
000060 04 8c 51 3d 50 c4 79 bc fa f5 d9 3d 20 1e f9 bb
       0.05115892 -0.015244558 0.106426194 -0.007602468
000070 36 dd 95 3d a6 62 d0 3d b0 9b c8 bd a0 05 6e 3c
       0.07317583 0.10175066 -0.0979532 0.014527708
000080 80 c5 e2 bd 9a f3 af bd 10 92 64 3c dc 91 74 3d
       -0.110728264 -0.08591385 0.01395084 0.059709415
000090 00 f0 1f 3d 04 42 aa 3d 48 2d df 3c 48 49 d1 3c
       0.03904724 0.08313373 0.027243271 0.025547639
0000a0 5a 7d d4 bd 8a 4a ca bd f8 a3 ff bd 10 6c 71 bc
       -0.103754714 -0.098774984 -0.124824464 -0.014735237
0000b0 20 15 88 bc f0 73 5c bd 40 a4 9f 3c 24 b4 e1 bd
       -0.016611636 -0.053821504 0.0194875 -0.11020687
0000c0 9a db 8f bd 68 8f 82 bd 24 75 e2 3d 60 45 1d 3d
       -0.070243075 -0.06375009 0.11057499 0.03839624
0000d0 24 66 3d bd 00 fe 97 b9 c0 8c fe bd 9e 40 96 3d
       -0.046239987 -0.0002899021 -0.1242919 0.073365435
0000e0 cc 17 23 3d 14 7e 8a bd 60 18 32 bd ca a6 ab bd
       0.039817616 -0.06762329 -0.043480277 -0.08381422
0000f0 d0 18 b6 bd 3e 01 b4 3d 7e aa f9 3d d8 73 45 bd
       -0.08891451 0.087892994 0.12190722 -0.04820618
000100 e4 92 25 bd ec b2 95 bd c4 6c 53 bd e4 f4 3d 3d
       -0.04042329 -0.07309517 -0.0516174 0.046376124
000110 78 ae 28 3d b8 d6 a9 3d c8 58 81 3d 54 43 2e bd
       0.04118201 0.082929075 0.06315762 -0.042544678
000120 00 ba f5 3d 78 43 46 bd 56 04 fd 3d 80 80 64 3c
       0.11998367 -0.048404187 0.12354343 0.013946652
000130 88 42 f7 3c 90 f2 c7 3d ac 2d f4 bd 9c 96 bd bd
       0.030183092 0.09763062 -0.11922774 -0.09257242
000140 48 d7 8b bc 80 1a a8 3c fe 34 fa bd 50 f3 63 3c
       -0.017070428 0.020520449 -0.12217139 0.013912991
000150 9a d5 c8 3d 18 ff 23 3d 70 d1 0e 3d 30 4b c6 bd
       0.09806366 0.0400382 0.034867704 -0.0968231
000160 9a c6 91 3d f0 6f c2 3d 60 40 5c 3d a8 54 f4 3d
       0.07117958 0.09494007 0.05377233 0.119302094
000170 00 6d 9d bb ec 9b 47 3d 96 28 d1 bd 80 64 22 bd
       -0.0048042536 0.048732683 -0.10212819 -0.039646626
000180 d0 3b 1d 3d 20 a3 03 bd e2 3e 93 3d 18 50 1f 3d
       0.03838712 -0.03213799 0.07189728 0.038894743
000190 8c ce 9c 3d 30 58 5b bc 80 6e 56 bc fc d1 c7 bd
       0.07656583 -0.013387725 -0.013087869 -0.09756848
0001a0 b0 2c fa 3c 0c a4 63 3d 9c ab 31 3d 00 64 d7 bb
       0.030538887 0.05557637 0.04337655 -0.0065732
0001b0 ee 07 bd 3d e0 f5 72 3d 76 64 d5 3d f4 41 f5 bd
       0.09230028 0.059316516 0.10419552 -0.1197547
0001c0 00 25 3d bb 36 a8 f7 3d b2 30 b1 3d 2c d8 14 bd
       -0.0028861165 0.120926306 0.08651866 -0.03633897
0001d0 04 87 8e 3d 80 f6 94 3a 3c e1 e6 bd 02 a7 f6 3d
       0.06959346 0.0011364967 -0.11273429 0.12043573
0001e0 46 a2 a2 3d 00 67 00 3d 38 7d f3 bd 44 e3 1e 3d
       0.079411075 0.03134823 -0.11889118 0.038790956
0001f0 60 50 b5 3d 88 19 9d 3d 8c be b8 bd 80 2a f7 ba
       0.08853221 0.07670885 -0.09020719 -0.001885727
000200 8c 1e 3b bd 04 8e 16 bd 08 c6 17 3d 5a 47 e3 bd
       -0.04568343 -0.03675653 0.03705409 -0.110975936
000210 c0 4d af bc 80 00 d6 bc a0 1a 02 3c 00 93 f6 bb
       -0.021399379 -0.026123285 0.007940918 -0.007524848
000220 ea a2 b4 3d e0 53 14 3c aa 8f ff 3d f0 be 40 bd
       0.08820136 0.0090532005 0.124785736 -0.047057092
000230 14 5a 2c bd 64 28 73 3d 00 cf 81 bc d0 b8 bf bd
       -0.042078093 0.05936469 -0.015845776 -0.09361422
000240 e0 d7 78 3c 50 ac 60 3d 8e 6c ce 3d 40 04 8f 3b
       0.015188187 0.05485183 0.10079299 0.0043645203
000250 10 f7 f5 bd 94 81 c4 3d b2 0f a2 3d 1e 71 cc bd
       -0.12010014 0.095950276 0.0791315 -0.09982513
000260 98 7e 3f bd e4 4f 96 3d 80 44 fc 3d 00 d7 77 3d
       -0.04675159 0.07339457 0.12317753 0.060507774
000270 24 d4 7f bd f0 5c 26 3c 34 29 86 3d 08 25 c2 3c
       -0.062458172 0.010153994 0.065508276 0.023699299
000280 00 3e 4b 3d c0 52 55 bd d0 17 ad bc 38 88 ac bd
       0.049619675 -0.05208087 -0.021129519 -0.08424419
000290 84 3d d2 3d 26 3c 92 bd ec af 66 bd 16 7d 9c bd
       0.102656394 -0.07140379 -0.056320116 -0.07641046
0002a0 ce a9 c4 3d c0 ff cc bb 70 aa 97 bd e8 e2 9c bd
       0.096027 -0.0062560737 -0.07405555 -0.076604664
0002b0 42 12 bc bd 40 72 96 3c d8 ab cf bd a2 64 f7 bd
       -0.0918317 0.018365026 -0.101401985 -0.12079741
0002c0 bc 32 f2 bd 98 05 4c bd 90 e4 25 3c 48 dc b7 3c
       -0.11826083 -0.049810022 0.010125294 0.022443905
0002d0 c0 c7 c7 bc 80 64 4b bd da e3 f9 3d c8 94 9a bc
       -0.02438724 -0.04965639 0.12201662 -0.018869773
0002e0 08 dc 87 3d 28 ae d7 3d 34 4b 8c 3d 96 96 b4 bd
       0.066337645 0.105312645 0.06850281 -0.088177845
0002f0 c8 0c bf 3d 7a d3 82 bd ea 19 c6 bd 80 c2 df 3c
       0.0932861 -0.06387992 -0.096729115 0.027314425
000300 ac e8 76 3d ac b2 62 bd 88 c8 62 3d 54 e9 d8 bd
       0.060280487 -0.055346176 0.055367023 -0.10591379
000310 d6 d8 84 bd 3e cc c8 bd 66 ae e3 3d 80 f0 44 bc
       -0.06486671 -0.09804581 0.11117248 -0.01202023
000320 5c 9c ac bd b0 cc 8c bc c8 fc e5 3d 36 ee ab bd
       -0.08428261 -0.017187446 0.11229855 -0.083950445
000330 9a 34 db bd d2 21 c1 3d 40 48 a7 3d b8 20 7e 3d
       -0.10703392 0.09430279 0.081680775 0.06204292
000340 d8 04 a7 bd c0 a3 5c bd 78 13 44 3d ca 7a e8 3d
       -0.08155221 -0.0538671 0.04787013 0.11351545
000350 a0 c5 8e 3d 80 c7 f2 3b d4 14 31 3d 30 06 96 3d
       0.06971288 0.007409036 0.043232754 0.07325399
000360 de 63 a5 3d 60 c6 0e bc 92 05 e9 bd a0 34 b2 3c
       0.08075689 -0.0087142885 -0.113780156 0.02175361
000370 40 07 09 bd e4 f9 74 3d 18 8a 5c bd 32 6c ea 3d
       -0.03345418 0.059808627 -0.053842634 0.11446418
000380 a0 6d 42 3c d0 6e a5 bd 4e d6 dd 3d 56 71 84 3d
       0.011866957 -0.080777764 0.10831891 0.064669296
000390 00 f1 03 bc 90 63 3d bc 52 a2 a7 bd e0 4f 41 3c
       -0.008053064 -0.011559382 -0.08185257 0.011798829
0003a0 e0 d5 21 3d 80 8c 3f 3c 3c b6 e1 bd 4e 7c cd bd
       0.039510608 0.011691213 -0.110210866 -0.10033475
0003b0 4e b0 ea 3d e0 60 44 bc 60 09 a9 3b 2c 9a ff bd
       0.11459409 -0.011985987 0.0051585883 -0.12480578
0003c0 b4 ed 9e bd 08 ed 4d bd ba 93 e3 bd 78 bd a6 3c
       -0.07760182 -0.05027488 -0.11112161 0.020354018
0003d0 78 ef 35 bd 40 93 52 3c c8 14 e3 bc 9e 17 98 bd
       -0.04441783 0.01285249 -0.02771987 -0.074263796
0003e0 52 12 85 bd 30 3b 96 3d f0 ba bc bd 30 63 17 3d
       -0.06497635 0.07335508 -0.09215343 0.036959827
0003f0 ac b9 cb bd c6 cb 89 3d 56 96 c7 bd 6c 20 43 bd
       -0.099475235 0.0672832 -0.09745471 -0.04763834

lstm.weight_hh_l0_reverse f4 [256, 64]
000000 74 bd 43 3d 2c b8 50 3d 40 4c ef bb e8 3e 98 3c
       0.0477881 0.05095689 -0.007302791 0.018584684
000010 70 92 89 bd 3c 72 44 3d 60 83 2e bd e8 1a fa bd
       -0.06717384 0.047960505 -0.042605758 -0.12212163
000020 e8 79 0d 3d 50 d8 64 bd 3a 37 a3 bd ee 66 ae bd
       0.034540087 -0.055870354 -0.07969518 -0.08515726
000030 00 6f ef bb c4 cf f9 3d 00 b2 54 bc a8 66 f3 bc
       -0.0073069334 0.12197831 -0.012981892 -0.029712036
000040 50 f2 dc 3d e0 db 0e bc 1c 0f 82 bd 10 66 d0 bd
       0.10788405 -0.0087194145 -0.06350538 -0.10175717
000050 40 bc 7a bb 12 9d f4 bd d0 ac 8d bc b4 48 ab 3d
       -0.0038259178 -0.11944021 -0.017294317 0.083634764
000060 08 35 be 3d 6e 18 80 bd 30 ea df 3d a0 30 3c 3d
       0.09287459 -0.062546596 0.109333396 0.04594481
000070 60 37 df 3c 80 b2 ce 3b 00 e8 50 bc b0 f9 64 bd
       0.027248085 0.0063079 -0.012750626 -0.055902183
000080 82 b0 e6 3d f8 22 fb bd 08 97 02 3d 24 3d 97 3d
       0.11264135 -0.12262529 0.031882316 0.073847085
000090 a0 60 3e 3c c6 8a e7 3d 48 20 81 bd 02 12 cb bd
       0.011619717 0.11305766 -0.06304985 -0.09915544
0000a0 3e 25 ec bd 68 4c fe 3c 10 af a8 bc c8 8d ef bc
       -0.11530541 0.031042293 -0.020591289 -0.029242411
0000b0 7c 59 97 3d 52 e0 be bd b6 43 c7 3d 38 4a ed bc
       0.07390115 -0.093201295 0.09729712 -0.028966054
0000c0 14 ae 82 3d 10 69 9e bd 2c 67 59 bd 48 82 f8 3c
       0.06380859 -0.07734883 -0.053076908 0.03033556
0000d0 c4 01 79 3d d8 e7 17 3d da 9a e6 3d 64 7c 4f 3d
       0.0607927 0.037086338 0.11260004 0.050655738
0000e0 3a fb f5 bd 60 79 ed 3b 00 c3 3f 3a e8 fb 99 3d
       -0.12010808 0.007247135 0.0007315129 0.075187504
0000f0 80 4f 9c bd c0 15 3e bc 1c 87 c4 bd 54 c4 48 3d
       -0.07632351 -0.011601865 -0.095960826 0.049015358
000100 ce c2 e0 bd e0 a2 12 bc 00 06 f7 39 a4 47 96 3d
       -0.10974656 -0.008949965 0.00047115982 0.07337883
000110 8c 98 ff 3d 30 75 ec bc 30 08 42 bd 70 92 fd bc
       0.12480268 -0.028864473 -0.04737109 -0.030953616
000120 30 f2 b0 bc b6 f4 e8 3d 4c d5 cb bd 68 d2 e3 bc
       -0.021599859 0.113748 -0.099527925 -0.02781029
000130 7c 2e d2 3d dc ed 03 3d d4 2f a2 3d 74 15 ba 3d
       0.102627724 0.032209262 0.07919279 0.09086123
000140 cc 4e fe 3d 80 b5 39 bd 00 75 30 bd 40 2c c6 bc
       0.12417373 -0.045339108 -0.04308033 -0.024191022
000150 2a 9d 87 3d 70 d9 62 3c b6 cd c2 bd 76 4b c7 3d
       0.066217735 0.013845786 -0.095118925 0.0973119
000160 36 81 fa bd 80 5d b0 3a c6 38 8f bd e2 6c bd 3d
       -0.12231676 0.00134556 -0.069932505 0.092492834
000170 7c 39 12 bd 50 ec 32 bc 9c 04 f8 bd 40 7c a5 bb
       -0.035699353 -0.010920599 -0.12110254 -0.005050212
000180 f6 6e cf bd 5c a2 38 bd 28 67 a5 3d b8 26 e9 3c
       -0.10128586 -0.045076713 0.08076316 0.028460845
000190 0e a8 c8 3d 36 b4 9d bd a8 f6 6c 3d 6e be bf bd
       0.09797679 -0.07700388 0.057852417 -0.093624935
0001a0 c8 ce af bc 5c c6 f6 bd de fc e8 bd 4a 09 cf 3d
       -0.021460906 -0.12049553 -0.113763556 0.101091936
0001b0 58 61 a8 bc 28 af 5a 3d be a2 80 bd a0 3b 39 bd
       -0.02055423 0.0533897 -0.062810406 -0.04522288
0001c0 6c f6 69 3d b2 3d c8 3d 40 8c ac bd 78 c3 af bc
       0.05711977 0.097773924 -0.08425188 -0.021455511
0001d0 3e 5a aa bd b4 e4 aa 3d 60 91 2b 3d 46 4a ec bd
       -0.083179936 0.08344403 0.041886687 -0.11537604
0001e0 10 62 36 3d 60 94 7e bc 20 f8 5d 3c 68 f1 93 3d
       0.044527113 -0.015538305 0.013547927 0.07223779
0001f0 30 9c 5a bc c4 9a e4 3d 80 1a f3 ba a0 cf 43 3c
       -0.013342902 0.11162332 -0.0018547326 0.011951357
000200 dc 3f c4 bd bc 10 40 bd a4 95 99 3d e2 a3 ef bd
       -0.09582493 -0.04689096 0.07499245 -0.1170118
000210 c0 a4 58 3b ec 5c ff bd 10 d2 6c bd 68 04 eb bc
       0.0033057183 -0.12468895 -0.05781752 -0.028688625
000220 96 78 88 bd 20 5a bf bc c0 01 e8 bb 60 aa 18 bd
       -0.06663625 -0.023358405 -0.0070802867 -0.037271857
000230 0c 7d 08 bd a4 5d 30 3d 68 2e da bd da de fd bd
       -0.03332238 0.043058053 -0.106533825 -0.12396021
000240 08 98 2c bd ea 42 d4 3d fe 8d a5 bd 8e cf f8 3d
       -0.042137176 0.10364325 -0.080837235 0.12148963
000250 c0 0c a6 bb e6 b5 de bd a0 a3 9c 3c 00 7d b0 3d
       -0.005067438 -0.10874538 0.019120991 0.08617592
000260 d4 d4 a9 3d d2 f0 ef bd 48 b2 53 3d 0e 6a e5 bd
       0.08292547 -0.11715855 0.051683694 -0.11201869
000270 e2 23 d8 bd c0 1b bf bb b0 31 af 3d ee 8d b1 3d
       -0.10553719 -0.0058321655 0.08554399 0.08669649
000280 92 36 9d 3d 5e f7 85 bd 10 d6 da 3c 82 19 dd 3d
       0.07676424 -0.06541322 0.026713401 0.10795881
000290 00 86 12 bc 8c c2 fa 3d 54 1e 45 3d 78 d3 6f 3d
       -0.008943081 0.12244138 0.048124626 0.05855128
0002a0 42 1a 96 3d c6 d0 f0 bd ec d2 8f 3d 86 94 bc bd
       0.07329227 -0.117585704 0.07022652 -0.09208016
0002b0 c8 dc 91 bd 04 76 87 bd 74 29 8a bd 64 0d b0 bd
       -0.07122189 -0.066143066 -0.06746188 -0.08596304
0002c0 4e 2b 86 bd 88 5a 8a 3c 08 1c 36 3d 00 f0 99 ba
       -0.065512285 0.016888872 0.044460326 -0.0011744499
0002d0 f8 e4 b0 bc 0c 12 39 3d a0 c1 69 bc 1e 5b fa bd
       -0.021593556 0.045183226 -0.014267355 -0.122244105
0002e0 00 a0 7d bd 4a 18 c9 bd 80 81 62 3d e4 cc 95 3d
       -0.061920166 -0.09819086 0.055299282 0.073144704
0002f0 82 c0 c1 bd 46 fd f7 bd 7c ff d2 bd 58 61 2f bd
       -0.09460546 -0.12108855 -0.10302636 -0.042817444
000300 00 a1 07 3a 50 ac de 3c dc 7e c2 bd b0 da 0e bc
       0.0005173832 0.027181774 -0.09496853 -0.008719131
000310 66 a5 ea bd 8c 0b 4a bd 30 bb 6d 3c f2 73 bf bd
       -0.114573285 -0.04932742 0.014509961 -0.09348287
000320 4a 96 9d 3d d2 ab 88 3d d8 f0 a4 bd 70 da ed 3d
       0.07694681 0.06673397 -0.0805375 0.11613929
000330 a0 b9 6d bd 7c 4c 3c bd 00 00 b6 37 2e 4b 8d bd
       -0.058038354 -0.04597138 2.169609e-05 -0.06899105
000340 b0 7d e7 bd c2 2c ad bd 20 e9 bd bd 30 94 72 bd
       -0.1130327 -0.084558025 -0.09272981 -0.059223354
000350 96 1f 85 bd f8 d2 d7 3c 80 32 56 3c 94 1e 9f 3d
       -0.06500165 0.026345715 0.013073564 0.07769504
000360 da 4c c3 bd 98 f7 02 bd b0 e8 99 bd 74 33 de 3d
       -0.09536143 -0.031974405 -0.07515085 0.10849658
000370 d2 ba f5 3d 12 d3 ee bd 74 c7 12 bd 8c b7 b8 3d
       0.11998524 -0.11661352 -0.035834745 0.09019384
000380 ce 80 fa 3d b4 de bc 3d a8 2f 85 3c ae 8e c7 bd
       0.12231599 0.09222165 0.016258076 -0.09744011
000390 98 fb 8a 3c 7c 3c 89 bd c0 e2 27 3b a2 3b ce bd
       0.016965672 -0.067009896 0.0025617331 -0.10069968
0003a0 00 3a 38 bb 3c 65 54 bd 74 45 92 3d fa 88 a8 bd
       -0.0028110743 -0.051854357 0.071421534 -0.08229251
0003b0 6c 45 66 3d e6 dc f5 bd 38 ea b6 bd 30 3f d8 3d
       0.05621855 -0.12005024 -0.089313924 0.10558927
0003c0 fc b1 9d 3d 80 c4 75 3c 00 b5 15 bc c2 56 88 bd
       0.076999635 0.0150004625 -0.009137392 -0.06657173
0003d0 e4 c2 78 bd 50 dd e6 bd f2 11 fd 3d 78 79 d3 3c
       -0.060732737 -0.11272681 0.123569384 0.025814757
0003e0 a8 5a 8a 3d ec 1e 5c bd 9a 8e 9f bd 00 b6 c2 bb
       0.067555726 -0.053740427 -0.07790871 -0.0059421062
0003f0 20 f3 c2 bb 2c be 5c 3d 46 df fe 3d f2 13 8b bd
       -0.005949393 0.0538923 0.1244493 -0.06790914
