src/main/runs/exp145_net_16_16_16_16_16_16_convs_diff_ep_100_im_re_SIG-198/weights/last.pt (torch, 747465 bytes, 75 tensors)

bn.weight f4 [16]
0	0x3fa5c652	1.2951148
1	0x3fa5bc9d	1.2948185
2	0x3fa8b50a	1.3180249
3	0x3fa714e6	1.3053253
4	0x3fa4b6e3	1.2868313
5	0x3fa16456	1.2608745
6	0x3fa40ff0	1.2817364
7	0x3fa12b08	1.2591257
8	0x3f6fc834	0.9366486
9	0x3f87dcd6	1.0614269
10	0x3f9c6da9	1.2220966
11	0x3f721126	0.94557416
12	0x3f9a1971	1.2039014
13	0x3f5613c1	0.8362389
14	0x3fa4610a	1.2842114
15	0x3f883cf9	1.0643607

bn.bias f4 [16]
0	0x3e1851ca	0.1487495
1	0x3df5ae39	0.11996121
2	0x3e872cf3	0.2640148
3	0x3e8b746c	0.2723726
4	0x3e80a70e	0.25127453
5	0x3e2fdeed	0.17174883
6	0xbd227fde	-0.039672725
7	0x3e038b9a	0.12846223
8	0xbe024cfd	-0.12724681
9	0xbe30f7e7	-0.17282067
10	0x3e16a91c	0.14712948
11	0x3e5c4964	0.21512371
12	0xbdaf97b4	-0.08573857
13	0x3e4d949b	0.2007622
14	0x3d8b6547	0.068064265
15	0xbdffd7e0	-0.12492347

bn.running_mean f4 [16]
0	0xbd4d6370	-0.05014366
1	0xbd78c3d4	-0.06073363
2	0xbdd19d70	-0.10235107
3	0xbe12fd03	-0.14354329
4	0xbe451640	-0.19246769
5	0xbd8f69c2	-0.070025936
6	0xbcbc24ba	-0.022966731
7	0xbdbaa1f1	-0.09112919
8	0xbe325e04	-0.17418677
9	0x3ce0939f	0.027414141
10	0xbd5c104e	-0.053726487
11	0xbe02099f	-0.12698983
12	0xbe2da2c0	-0.16956615
13	0xbe539fd5	-0.2066644
14	0xbe122504	-0.14271933
15	0xbe0f04f3	-0.13966732

bn.running_var f4 [16]
0	0x3eea6213	0.4577795
1	0x3f24d6b2	0.643901
2	0x3f31c1eb	0.6943652
3	0x3f1d3c28	0.61419916
4	0x3f1ab7d2	0.6043674
5	0x3cf1760a	0.02947523
6	0x3d085dec	0.033292696
7	0x3d1c7532	0.038197704
8	0x3d164b9a	0.036693193
9	0x3c9a5d2a	0.018843252
10	0x3d1e896a	0.038705267
11	0x3ef82adb	0.48470196
12	0x3ecda489	0.40164593
13	0x3e479258	0.1948942
14	0x3e16dfeb	0.14733855
15	0x3e4ed970	0.20200133

lstm.weight_ih_l0 f4 [256, 16]
0	0x3ca77ca0	0.020445168
1	0x3d8f8ed6	0.07009666
2	0xbcd79700	-0.02631712
3	0x3d8c632e	0.068548545
4	0xbd17bad8	-0.037043422
5	0x3b382680	0.002809912
6	0x3df8dee8	0.12151891
7	0x3d992638	0.07477993
8	0x3bc6e960	0.006070301
9	0xbd0f9e20	-0.03506291
10	0x3df1a65c	0.11799309
11	0xbdf406fe	-0.11915396
12	0x3dc29660	0.09501338
13	0xbab85080	-0.0014062077
14	0x3cae8dc8	0.021307841
15	0xbd3899b8	-0.045068473
16	0x3dd05d10	0.10174
17	0xbad09c00	-0.0015915632
18	0x3d2fd6f4	0.042929605
19	0x3def3ef0	0.11681926
20	0xbdc7af06	-0.0975018
21	0x3d7e3c98	0.062069505
22	0x3d572fa4	0.052535668
23	0x3d044fd8	0.032302707
24	0x3d1e52c0	0.038653135
25	0xbd680750	-0.0566476
26	0x3dd871c4	0.10568574
27	0x3db19f96	0.08673017
28	0xbd011fe0	-0.03152454
29	0xbdb17b1e	-0.08666061
30	0xbb01eec0	-0.0019826144
31	0x3de7126c	0.112828106
32	0xbd7b33f4	-0.061328843
33	0x3bbf7e80	0.0058439374
34	0xbce08ae8	-0.027409986
35	0xbd1db5c8	-0.03850344
36	0x3d106b74	0.035258725
37	0x3d7fec2c	0.06248109
38	0xbcece248	-0.028916493
39	0x3d346a10	0.04404646
40	0x3b9d8f00	0.0048083067
41	0x3b137bc0	0.002250418
42	0x3deb5742	0.114912525
43	0x3d3cadac	0.046064064
44	0x3dcd5ba4	0.10027245
45	0xbd960b42	-0.07326366
46	0xbdfe02fc	-0.12402913
47	0xbd293ac0	-0.041315794
48	0xbd2ef3fc	-0.04271315
49	0xbd3cfecc	-0.04614143
50	0x3dc3a3aa	0.09552701
51	0xbde48f20	-0.111601114
52	0x3ddf2888	0.108964026
53	0xbdfa7910	-0.12230122
54	0xbdd2b334	-0.102880865
55	0x3d7d1ffc	0.06179808
56	0xbd3b5ec4	-0.045744672
57	0x3c9051a0	0.017617047
58	0xbdaa1592	-0.083048955
59	0x3d97e0b8	0.074159086
60	0x3da8a4c4	0.082345515
61	0xbc15beb0	-0.009139702
62	0xbc0d0e90	-0.008609429
63	0x3dbef94c	0.09324893
64	0xbd7e516c	-0.06208937
65	0x3db45210	0.08804715
66	0xbd9b147a	-0.07572265
67	0x3df536f6	0.119733736
68	0xbcc41340	-0.02393496
69	0x3d9c6646	0.076366946
70	0xbd2a58f8	-0.041588753
71	0x3dada1d6	0.084781334
72	0xbc91d1f8	-0.017800316
73	0xbd2b1e6c	-0.04177706
74	0xbdb52f30	-0.08846891
75	0xbd20b4f0	-0.039235055
76	0x3d0d525c	0.034502372
77	0xbded6c02	-0.115928665
78	0x3da4332a	0.08017571
79	0xbd708b24	-0.058726445
80	0x3d9ca820	0.07649255
81	0xbde16dcc	-0.1100727
82	0x3d8c5fd8	0.06854218
83	0x3c550100	0.013000727
84	0x3cd88fd0	0.026435763
85	0x3dc0522e	0.093906745
86	0x3db0170c	0.08598146
87	0x3d300d78	0.042981595
88	0xbb306040	-0.0026912838
89	0xbdc557ac	-0.09635863
90	0xbdd5c7f6	-0.1043853
91	0xbce029c0	-0.027363658
92	0xbcfae090	-0.030624658
93	0xbdbf6d3c	-0.09347007
94	0xbcb86ff0	-0.022514313
95	0xbdcbc772	-0.099501505
96	0x3b6ee580	0.003645271
97	0x3dcf0d06	0.10109906
98	0xbbe2ffe0	-0.0069274753
99	0xbcb06028	-0.021530226
100	0xbd96dad6	-0.073659584
101	0xbc31c790	-0.010850802
102	0xbde6c848	-0.11268669
103	0x3dd39102	0.103303924
104	0xbdec82ca	-0.115483835
105	0xbd7605e0	-0.060064197
106	0x3d7b0b38	0.061289996
107	0xbb4cc900	-0.0031247735
108	0x3d7c2600	0.061559677
109	0xbdbe48b6	-0.09291212
110	0x3a92eb00	0.0011208951
111	0xbd3ddabc	-0.04635118
112	0x3d0f49c4	0.034982458
113	0xbcca6b70	-0.024709433
114	0xbd8cc766	-0.0687397
115	0xbd4d2144	-0.050080553
116	0x3d92b0c4	0.071626216
117	0xbde71690	-0.112836
118	0x3da19ef0	0.07891643
119	0x3d0e9930	0.03481406
120	0x3d7acd20	0.06123078
121	0xbd95b56c	-0.07309994
122	0xbd0c20c0	-0.03421092
123	0xbd8d270e	-0.06892215
124	0x3d4e3140	0.050339937
125	0x3d22c8e0	0.03974235
126	0xbd25311c	-0.040330037
127	0xbd95933c	-0.07303473
128	0xbd15ccb8	-0.03657219
129	0x3bb3b2c0	0.005483955
130	0xbb80dbc0	-0.0039324462
131	0xbdf9e690	-0.122021794
132	0x3dc8352c	0.09775767
133	0x3c2ae060	0.010429472
134	0x3d5a92dc	0.053362712
135	0xbdb200a8	-0.086915314
136	0x3da8792c	0.08226237
137	0x3bc9a580	0.0061537623
138	0xbdbade44	-0.09124425
139	0x3d4fb648	0.050710946
140	0xbd61eb04	-0.05515577
141	0xbdd013b0	-0.10160005
142	0xbd2a61dc	-0.041597232
143	0xbdd847b4	-0.10560551
144	0xbac44880	-0.001497522
145	0x3d17d3c4	0.03706719
146	0xb9a84e00	-0.00032101572
147	0x3ddad20e	0.10684596
148	0xbd4cbc48	-0.049984246
149	0x3ce7edf0	0.0283117
150	0xbda9e4c8	-0.0829559
151	0x3de5b470	0.11216056
152	0xba392500	-0.00070627034
153	0xbd686b8c	-0.05674319
154	0x3d4ec810	0.050483763
155	0x3dd50b0e	0.10402499
156	0x3dd86814	0.10566726
157	0x3dc8037e	0.09766291
158	0xbd0b55f8	-0.034017533
159	0xbc2c3810	-0.010511413
160	0xbd56fa3c	-0.052484736
161	0x3d0eaeb0	0.034834564
162	0x3da348de	0.07972883
163	0x3c8a22b8	0.016862258
164	0xbd370af0	-0.044688165
165	0x3de02184	0.109438926
166	0xbdecd740	-0.11564493
167	0x3d4dd96c	0.050256178
168	0xbd9757fe	-0.0738983
169	0x3d845296	0.064610645
170	0x3d15c5c8	0.036565572
171	0xbc829fe0	-0.015945375
172	0xbd97c072	-0.07409753
173	0x3d13c8c8	0.03608015
174	0xbdd2c64a	-0.10291727
175	0x3d9f833a	0.07788701
176	0x3cccfdd8	0.025023386
177	0x3d0dfff4	0.034667924
178	0xbd578c70	-0.052624166
179	0x3d7d7f68	0.061889082
180	0xbd894342	-0.067022815
181	0x3b305600	0.0026906729
182	0xbcd76548	-0.026293412
183	0xbc9a7498	-0.018854424
184	0xbd692098	-0.05691585
185	0xbc725340	-0.014790356
186	0xbdf13dac	-0.11779341
187	0x3c588e60	0.013217539
188	0x3dee050e	0.11622058
189	0xb86b1000	-5.6043267e-05
190	0x3df030fa	0.117280915
191	0x3c575400	0.013142586
192	0xbd6bdb50	-0.0575822
193	0x3d9cc908	0.07655531
194	0xbc04d580	-0.008107543
195	0xbcd31510	-0.02576688
196	0xbbdc30a0	-0.0067196637
197	0x3dbf07bc	0.09327647
198	0x3df2c064	0.11853102
199	0xbaf1fd00	-0.0018462241
200	0xbdf2e9e8	-0.1186102
201	0x3d3f1380	0.046649456
202	0x3cd95f70	0.026534766
203	0xbdcde122	-0.10052706
204	0xbc13c850	-0.009019926
205	0xbdd0a544	-0.10187772
206	0xbd9fbe60	-0.07799983
207	0xbd409cfc	-0.047024712
208	0xbd3f43c0	-0.04669547
209	0x3db8d1ee	0.09024416
210	0xbdd3e242	-0.1034589
211	0x3d4b2138	0.049592227
212	0x3cc474c0	0.023981452
213	0xbce44c98	-0.027868554
214	0xbdd93590	-0.10605919
215	0xbc892f60	-0.016746223
216	0x3dcaf296	0.09909551
217	0x3d97df00	0.07415581
218	0xbdbd6162	-0.0924709
219	0xbdfbcf8c	-0.12295446
220	0x3b59e580	0.0033248365
221	0x3d0fbaf0	0.035090387
222	0x3ccb1c58	0.024793789
223	0x3d35af4c	0.04435663
224	0xbdb80a00	-0.08986282
225	0xbdd75d7c	-0.105158776
226	0x3dece41a	0.115669444
227	0x3dccea00	0.100055695
228	0xbd4c26cc	-0.049841687
229	0x3d8ae856	0.06782596
230	0x3df8a204	0.12140277
231	0x3d90ffda	0.0708005
232	0x3ca99218	0.020699546
233	0x3ccc9c70	0.024976939
234	0xbdefe2da	-0.117131904
235	0xbc8dd940	-0.017315507
236	0xbd590254	-0.052980736
237	0xbda925d2	-0.08259167
238	0xbde31632	-0.11088218
239	0x3dd780da	0.10522623
240	0x3d1c5708	0.038168937
241	0x3a25db00	0.0006326884
242	0x3df58896	0.11988942
243	0x3cdb42e0	0.026765287
244	0x3dfa85ae	0.122325286
245	0x3de7e10c	0.11322221
246	0x3d41253c	0.04715465
247	0xbd69c6a0	-0.05707419
248	0x3dce58a2	0.10075499
249	0xbdd73c6a	-0.1050957
250	0x3d92596e	0.071459636
251	0x3d3a1ae0	0.045435786
252	0x3cb54508	0.022127643
253	0xbd047c0c	-0.032344863
254	0x3d02589c	0.031822786
255	0xbdf5a408	-0.11994177

lstm.weight_hh_l0 f4 [256, 64]
0	0x3caa4a10	0.020787269
1	0xbca2b3b8	-0.019861087
2	0x3be50d40	0.006990105
3	0x3de4f866	0.11180191
4	0xbcbd30d0	-0.023094565
5	0x3d371878	0.04470107
6	0xbd0ba540	-0.03409314
7	0x3df0bfcc	0.11755332
8	0xbd5b3c18	-0.053524107
9	0xbd6e7c40	-0.058223963
10	0x3debda80	0.11516285
11	0x3de3d51e	0.11124633
12	0x3d8077f4	0.06272879
13	0xbd2cf668	-0.04222718
14	0x3d7657b8	0.06014225
15	0xbd88df04	-0.06683162
16	0xbd605004	-0.05476381
17	0x3daa050e	0.08301745
18	0xbdf608fc	-0.120134324
19	0xbd4bfcf8	-0.049801797
20	0x3c820658	0.015872166
21	0x3d2ef854	0.042717293
22	0xbb33cac0	-0.002743408
23	0x3db3f42a	0.08786805
24	0xbd5cf974	-0.053948835
25	0x3de0db64	0.109793454
26	0x3cd6a748	0.026202813
27	0xbde7d32e	-0.11319576
28	0xbcb7e788	-0.02244927
29	0xbd8ac2b4	-0.06775418
30	0xbd6cd8f4	-0.05782409
31	0xbd1f0f6c	-0.038833067
32	0x3d62d93c	0.055382952
33	0xbd142e2c	-0.036176845
34	0x3cbb2070	0.022842616
35	0xbac22180	-0.0014811009
36	0xbde78e7e	-0.11306475
37	0x3c3b7000	0.011440277
38	0xbbe884e0	-0.007095918
39	0xbdf7ee42	-0.12105991
40	0xbd33405c	-0.04376255
41	0x3d5c4ac4	0.05378224
42	0xbd078e74	-0.03309484
43	0xbdbb244a	-0.09137781
44	0xbc3ba080	-0.01145184
45	0x3dca345e	0.098732695
46	0x3dbc8ea2	0.092068925
47	0xbd57c574	-0.05267854
48	0x3b62ae40	0.0034588724
49	0x3bac8ce0	0.005265817
50	0x3df3fc10	0.119133115
51	0x3d7f8378	0.062381238
52	0xbd637a90	-0.055536807
53	0x3c4e9fe0	0.012611359
54	0xbdded3ce	-0.10880242
55	0xbd435654	-0.04768975
56	0x3d02e450	0.031956017
57	0x3d3335f0	0.04375261
58	0x3d7de860	0.06198919
59	0xbc690930	-0.014223382
60	0xbd5a329c	-0.05327092
61	0xbdb2fc14	-0.08739486
62	0xbd7680d0	-0.06018144
63	0xbdb8e60a	-0.090282515
64	0xbdfeeb06	-0.12447171
65	0x3cfa8330	0.030580133
66	0xbddd8a2c	-0.1081737
67	0x3d5cd930	0.053918064
68	0x3cf74b50	0.030187279
69	0xbdf50156	-0.119631454
70	0xbc3a67d0	-0.01137729
71	0xbd950930	-0.07277143
72	0xbde9b660	-0.114117384
73	0xbda5898c	-0.080828756
74	0x3cc3d1d0	0.023903757
75	0xbd4c2c64	-0.04984702
76	0x3df5b16c	0.11996731
77	0x3dc5cc6e	0.096581325
78	0x3d1ddf60	0.038543105
79	0x3d907402	0.07053377
80	0xbdfae458	-0.12250584
81	0x3cbd0bc0	0.023076892
82	0xbdee629e	-0.116399035
83	0xbd32f83c	-0.043693766
84	0xbdd6ff46	-0.10497908
85	0xbd5dbf10	-0.05413729
86	0xbd66f6d8	-0.056387752
87	0x3dc8c78e	0.09803687
88	0x3b7ec840	0.0038876683
89	0x3dddeef0	0.10836589
90	0xbc0b8520	-0.008515626
91	0x3bc7a4c0	0.006092638
92	0x3d785738	0.060630053
93	0x3dd86904	0.10566905
94	0xbd7277f8	-0.059196442
95	0xbdde8790	-0.108657
96	0x3da4b8b6	0.08043043
97	0xbc233400	-0.009961128
98	0xbd96b86e	-0.07359396
99	0xbcd9fd28	-0.026609972
100	0xbdd9e274	-0.10638896
101	0xbbc8b2c0	-0.0061248243
102	0xbd09ac54	-0.03361161
103	0xbdad27c2	-0.08454849
104	0xba351c00	-0.00069087744
105	0x3d3d36e4	0.046194926
106	0xbc9a3f28	-0.018828943
107	0x3d8731f0	0.06601322
108	0xbceaf7f0	-0.028682679
109	0x3dc5aa46	0.09651618
110	0x3d99b3f2	0.07505025
111	0xbdebf09c	-0.11520502
112	0x3ceb8eb8	0.028754577
113	0xbd968214	-0.07349029
114	0xbdfedfbe	-0.12445019
115	0x3d034cb4	0.03205557
116	0x3da35e40	0.07976961
117	0x3d1c1000	0.038101196
118	0xbce9aa40	-0.028523564
119	0x3d943552	0.072367325
120	0xbd9d328c	-0.07675657
121	0xbde1662a	-0.110058144
122	0x3df5e516	0.12006585
123	0xbccc0cb8	-0.024908409
124	0x3dff125a	0.12454672
125	0x3dcb22b8	0.099187315
126	0x3db42bc0	0.08797407
127	0x3d9fa2b2	0.077947035
128	0x3ddfd5e0	0.10929465
129	0xbc035920	-0.0080168545
130	0xbdacab1c	-0.08431074
131	0x3def3006	0.116790816
132	0xbda5f590	-0.08103478
133	0x3d23860c	0.03992276
134	0x3d486e10	0.04893309
135	0x3d769a14	0.060205534
136	0xbda08f44	-0.07839826
137	0xbdbc4182	-0.09192182
138	0xbd5f0430	-0.054447353
139	0xbc105b70	-0.008810863
140	0xbd18decc	-0.03732185
141	0x3d0ce160	0.03439462
142	0x3df664ae	0.12030922
143	0xbde86682	-0.11347677
144	0x3dd28d62	0.10280873
145	0xbda715e2	-0.08158471
146	0xbd95307a	-0.07284637
147	0x3df41188	0.11917406
148	0x3dca38ec	0.09874138
149	0xbdc49d66	-0.09600334
150	0x3d4e19c8	0.050317556
151	0xbda74cb4	-0.08168927
152	0x3d523d6c	0.051328108
153	0xbc8bc488	-0.017061487
154	0x3bfb98e0	0.007678136
155	0x3dee113a	0.116243795
156	0x3d7ea8b4	0.062172607
157	0xbdbb8056	-0.091553375
158	0x3da67fc4	0.08129838
159	0xbdb01d5c	-0.0859935
160	0x3dafd00e	0.08584605
161	0xbda32e74	-0.079678446
162	0x3dfd2fee	0.123626575
163	0x3d4fafbc	0.050704703
164	0xbbabbba0	-0.0052408725
165	0x3da5cb66	0.08095436
166	0xbdbf1646	-0.0933042
167	0x3dc7150e	0.09720813
168	0xbd868266	-0.0656784
169	0xbd313438	-0.04326269
170	0xbb8d8660	-0.0043189973
171	0xbbf11c60	-0.007358119
172	0x3c7b9b60	0.0153568685
173	0x3d09f840	0.033684015
174	0x3dd6b9c4	0.10484651
175	0x3dff9e20	0.12481332
176	0xbda2bbbe	-0.07945965
177	0xbd25f1e0	-0.040513873
178	0x3d88758c	0.06663045
179	0x3ca66ac8	0.02031459
180	0xbc3367b0	-0.010950014
181	0x3d78b944	0.060723558
182	0xbc46b3b0	-0.012127802
183	0x3c1a7f70	0.0094297975
184	0xbd92d5ba	-0.07169671
185	0x3cba7430	0.02276048
186	0xbceb6ab0	-0.028737396
187	0xbb968a20	-0.0045941025
188	0x3dfb909a	0.1228344
189	0x3d97aa52	0.07405533
190	0x3da81ab0	0.08208215
191	0x3cd11bd8	0.025525972
192	0xbc879088	-0.01654841
193	0x3dada35c	0.08478424
194	0xbdd75e70	-0.105160594
195	0x3db78dda	0.08962603
196	0x3d7b84b0	0.061405838
197	0x3dfb9642	0.12284519
198	0xbce96dc0	-0.028494716
199	0x3da75d74	0.08172122
200	0x3bb9e3e0	0.005672917
201	0x3da144f8	0.07874483
202	0xbdcf0100	-0.101076126
203	0xbd84566c	-0.06461796
204	0xbd68d024	-0.056839123
205	0xbd4a4830	-0.04938525
206	0xbd99a188	-0.07501513
207	0xbcba3760	-0.022731483
208	0xbc9654f8	-0.018351063
209	0x3ca095c0	0.019602656
210	0xbd8fcad8	-0.07021111
211	0x3dac552e	0.08414684
212	0xbc862000	-0.01637268
213	0x3be96f00	0.007123828
214	0x3cbc45f0	0.022982568
215	0x3d9c2c02	0.07625581
216	0xba826a00	-0.0009949803
217	0x3ca19ee0	0.019729078
218	0x3ddb8130	0.10718
219	0x3d05e408	0.03268817
220	0x3df494a4	0.119424134
221	0xbca313f8	-0.019906983
222	0x3ca91cf0	0.020643681
223	0xbdccb626	-0.099956796
224	0x3dd56748	0.1042009
225	0x3d870dd0	0.065944314
226	0x3c869a00	0.016430855
227	0x3de315f0	0.110881686
228	0xbd963ee4	-0.07336214
229	0xbdbd2232	-0.09235038
230	0x3dcd3b98	0.10021132
231	0xbdf0b402	-0.11753084
232	0xbd346a30	-0.04404658
233	0xbdd757cc	-0.10514793
234	0x3c962b00	0.01833105
235	0x3dfebdd0	0.124385476
236	0xbd8d5564	-0.069010526
237	0xbdab789a	-0.08372612
238	0xbcd4c4a0	-0.025972664
239	0x3d831e60	0.06402278
240	0xbd6bdba0	-0.057582498
241	0x3d88bc1e	0.066765055
242	0x3d76c750	0.060248673
243	0xbcb62d70	-0.022238463
244	0x3d25668c	0.040381
245	0x3d874430	0.066048026
246	0x3dae5588	0.085124075
247	0x3d8d0c38	0.06887096
248	0x3c612e20	0.013743907
249	0xbd90dff6	-0.07073967
250	0xbdd3c560	-0.10340381
251	0x3dc8df46	0.09808211
252	0x3df6755e	0.12034105
253	0xbd9f66e2	-0.07783295
254	0x3a573e00	0.0008210838
255	0x3dd7cc5e	0.10537027

lstm.bias_ih_l0 f4 [256]
0	0x3d020cb8	0.03175041
1	0xbd8d1a60	-0.06889796
2	0x3c937fe8	0.018005326
3	0x3dc75d56	0.09734599
4	0x3bc4ce00	0.0060060024
5	0x3db323e4	0.0874708
6	0x3d1bb978	0.038018674
7	0x3ace1980	0.0015724152
8	0x3de9b94c	0.11412296
9	0xbd9c3bde	-0.07628606
10	0xbc8322e0	-0.01600784
11	0xbd84c1e0	-0.06482291
12	0xbdffc5a0	-0.12488866
13	0x3db05dca	0.08611639
14	0xbd93b9e6	-0.07213192
15	0x3d4ad4e0	0.04951942
16	0xbdbc78a6	-0.09202699
17	0x3d89c308	0.067266524
18	0x3db7972c	0.089643806
19	0x3db35362	0.087561384
20	0xbdb82bf0	-0.089927554
21	0x3da092d2	0.07840504
22	0xbcdd19a0	-0.026989758
23	0xbddcfa48	-0.10789925
24	0xbdd7996c	-0.1052731
25	0x3dd2ada8	0.102870286
26	0x3d715084	0.058914676
27	0x3da0a99a	0.07844849
28	0xbdc2da52	-0.095142975
29	0x3df7d58c	0.12101278
30	0xbdb38452	-0.087654725
31	0x3dea4742	0.114393726
32	0xbd521c70	-0.05129665
33	0x3b801ca0	0.0039096624
34	0xbdb79dba	-0.08965631
35	0x3dffef66	0.124968335
36	0x3dac58aa	0.08415349
37	0xbda6bfb6	-0.08142035
38	0xbdec0666	-0.11524658
39	0x3d961bfe	0.07329558
40	0xbd9471a0	-0.07248235
41	0xbd835168	-0.064120114
42	0xbd747750	-0.059684098
43	0x3ce9b0d0	0.028526694
44	0xbdb8f14e	-0.090304
45	0xbaa03d00	-0.0012225211
46	0xbc1460b0	-0.009056255
47	0x3dc90f1a	0.098173335
48	0xb9df1400	-0.00042548776
49	0x3cd96068	0.026535228
50	0xbd1c4238	-0.03814909
51	0x3c13c5b0	0.0090193
52	0xbde17670	-0.11008918
53	0x3dcec07c	0.10095307
54	0x3db9ef0c	0.09078798
55	0xbde7f546	-0.11326079
56	0x3ddba004	0.1072388
57	0xbd22e1a4	-0.03976597
58	0x3d8d7bb8	0.06908363
59	0x3d8555d6	0.065105125
60	0xbd8c18bc	-0.06840655
61	0x3df272cc	0.11838302
62	0x3df7bf8c	0.120970815
63	0xbdc5bb22	-0.096548334
64	0x3d7345b4	0.059392646
65	0x3cf4fa60	0.029904544
66	0x3d82429c	0.06360361
67	0x3b6be0c0	0.0035992116
68	0xbccdf408	-0.025140777
69	0x3d380fb4	0.04493685
70	0x3dbab4c2	0.09116508
71	0xbab0dd00	-0.0013493598
72	0x3dfea3ca	0.12433584
73	0xbda08e0a	-0.07839592
74	0x3def74e8	0.1169222
75	0x3da7b7b4	0.081893355
76	0xbd52757c	-0.051381573
77	0xbd9c6e42	-0.076382175
78	0xbd6740b8	-0.056458205
79	0x3d6f81ac	0.058473274
80	0x3d1ef568	0.038808256
81	0xbd506f5c	-0.05088745
82	0x3ddd9d38	0.10821003
83	0x3dbf9d48	0.09356171
84	0xbd96290c	-0.07332048
85	0xbd950d6e	-0.07277952
86	0x3c85cb80	0.016332388
87	0xbd2e83f0	-0.042606294
88	0x3d3d18cc	0.046166226
89	0x3c059430	0.008153006
90	0xbd48d928	-0.04903522
91	0x3d521a2c	0.05129449
92	0xbdd7077a	-0.10499473
93	0x3d9935fa	0.07480998
94	0xbc7955a0	-0.0152181685
95	0xbd05050c	-0.032475516
96	0x3cec0a18	0.028813407
97	0x3cc4a298	0.024003312
98	0x3c695750	0.014242008
99	0xbdbf13ec	-0.09329972
100	0xbdf7d9c0	-0.121020794
101	0x3c5ea010	0.013587967
102	0x3d9bec3a	0.07613416
103	0x3d389178	0.045060605
104	0x3da0bc4a	0.07848413
105	0xbdaf10a0	-0.08548093
106	0xbcfda198	-0.030960843
107	0xbdf4ecd4	-0.11959234
108	0x3daf5352	0.08560814
109	0x3d00e320	0.031466603
110	0x3db03122	0.08603121
111	0xbc861cd8	-0.016371176
112	0x3cbbad00	0.022909641
113	0x3da32f7e	0.07968043
114	0xbb5f3500	-0.003405869
115	0xbc3e7cc0	-0.011626422
116	0x3bcbbae0	0.0062173456
117	0x3d66bae4	0.056330577
118	0x3df018dc	0.117234915
119	0x3df1f1ca	0.11813696
120	0x3da8457e	0.082163796
121	0x3d808c54	0.062767655
122	0xbd494a88	-0.049143344
123	0x3d68c638	0.05682966
124	0x3d9704c2	0.07373954
125	0x3d8a077e	0.0673971
126	0xbd7b6a7c	-0.06138085
127	0x3d3fa60c	0.046789214
128	0xbdd7c850	-0.105362535
129	0xbdded1b2	-0.1087984
130	0xbde48fb4	-0.11160222
131	0xbd30d038	-0.043167323
132	0xbca9a1c8	-0.020707026
133	0x3dfc3a06	0.123157546
134	0xbd8cdeca	-0.06878431
135	0x3dea3e56	0.11437671
136	0x3bc85380	0.0061134696
137	0x3dd7e6ea	0.1054209
138	0x3b99c6c0	0.0046928823
139	0xbcd94508	-0.026522174
140	0xbde5255c	-0.11188766
141	0xbd729824	-0.059227124
142	0xbdfa4cee	-0.122217044
143	0xbdd9a7e4	-0.10627726
144	0xbde95266	-0.113926694
145	0x3d003e34	0.03130932
146	0xbd7c4968	-0.061593443
147	0xbde1f41a	-0.11032887
148	0x3ddb131c	0.10697004
149	0xbdd253fe	-0.102699265
150	0xbd940770	-0.07227981
151	0xbddd6eda	-0.10812159
152	0x3d7ea2f8	0.062167138
153	0x3dad258a	0.08454426
154	0xbd8a3bee	-0.06749712
155	0x3ddb7166	0.107149884
156	0xbdb1fda4	-0.08690956
157	0xbc081460	-0.008305639
158	0x3dc7b57e	0.09751414
159	0xbb617b40	-0.0034405738
160	0x3c0358f0	0.00801681
161	0xbb9de4a0	-0.004818514
162	0x3dfd6024	0.12371853
163	0x3db560b2	0.08856334
164	0x3db7817a	0.089602426
165	0xbd8e7734	-0.0695633
166	0x3d3a206c	0.045441076
167	0xbde98cfa	-0.11403842
168	0xbd21588c	-0.039391086
169	0xbd817ab0	-0.06322229
170	0xbdb80032	-0.08984412
171	0x3a0b3400	0.0005310178
172	0xbdd03974	-0.10167208
173	0x3da21e98	0.079159915
174	0xbdd696ee	-0.10478006
175	0x3a72db00	0.0009264201
176	0x3a7bbc00	0.00096029043
177	0xbc414d00	-0.011798143
178	0xbd8fb39e	-0.07016681
179	0xbddfc008	-0.10925299
180	0x3d8fd4d2	0.07023014
181	0xbdb0dcde	-0.08635877
182	0x3db7935e	0.08963655
183	0xbb01d240	-0.0019809157
184	0xbd9aba74	-0.07555094
185	0xbd8c2f4e	-0.0684496
186	0x3dda25d8	0.10651749
187	0x3de20d4a	0.11037691
188	0xbde882f4	-0.11353102
189	0x3d8b185e	0.06791757
190	0x3dc2d76e	0.09513746
191	0x3d962358	0.0733096
192	0x3daf37b8	0.085555494
193	0x3d8f61b2	0.07001056
194	0xbd7bbdc4	-0.06146027
195	0xbddea84c	-0.10871944
196	0x3ce82060	0.02833575
197	0xbacafc80	-0.0015486628
198	0xbcafe838	-0.021473035
199	0xbcdde468	-0.027086452
200	0x3de69022	0.1125796
201	0x3c27e7b0	0.01024811
202	0xbbc83b60	-0.0061105937
203	0x3d2c1e14	0.042020872
204	0xbcb2b778	-0.021816
205	0xbd8d53dc	-0.069007605
206	0xbd842dba	-0.06454034
207	0x3d5698e8	0.052391917
208	0x3dc8105c	0.09768745
209	0xbccb00e0	-0.02478069
210	0xbd934c70	-0.07192314
211	0x3db1a99c	0.086749285
212	0xbd87d006	-0.06631474
213	0x3c34b6b0	0.011029884
214	0x3dca7cc8	0.098870814
215	0x3cb884d0	0.022524267
216	0x3db0c7e6	0.086318776
217	0xbde065ea	-0.109569386
218	0x3abf6680	0.0014602691
219	0xbde46cae	-0.111535415
220	0xbd3e6498	-0.046482652
221	0x3dc88fb6	0.09793036
222	0x3d0f3738	0.03496477
223	0x3dca5b60	0.0988071
224	0xbd8081d2	-0.06274761
225	0xbdc9121c	-0.09817907
226	0x3dce47e0	0.10072303
227	0xbc93ea50	-0.018056065
228	0xbdb76b2c	-0.08955988
229	0xbce0b840	-0.027431607
230	0xbdf47e1e	-0.119381174
231	0xbd74926c	-0.05970995
232	0xbdb8d474	-0.09024897
233	0x3dc736a8	0.09727222
234	0x3d490948	0.049081117
235	0x3bf31880	0.007418692
236	0x3d2ef79c	0.042716607
237	0x3df23298	0.11826056
238	0xbdf63f70	-0.120238185
239	0xbd16ca7c	-0.036814198
240	0x3d88956c	0.06669125
241	0xbcfb6d20	-0.030691683
242	0x3cf88998	0.030339047
243	0x3cb80b60	0.022466362
244	0x3db653ac	0.08902678
245	0xbdbf22dc	-0.09332821
246	0x3da0add0	0.07845652
247	0x3de9ae36	0.11410181
248	0xbd1da6c4	-0.03848912
249	0x3d913eb6	0.07092039
250	0xbdc43cb8	-0.09581894
251	0x3c0ce720	0.008600026
252	0xbd8eabe0	-0.06966376
253	0xbcb0cff8	-0.021583542
254	0x3d287a6c	0.041132376
255	0xbde84890	-0.11341965

lstm.bias_hh_l0 f4 [256]
0	0xbdeb1928	-0.114794075
1	0x3c6fa130	0.014625832
2	0x3d990b16	0.074728176
3	0xbdd03004	-0.10165408
4	0x3d62c10c	0.055359885
5	0xbda4411e	-0.080202326
6	0x3dc25510	0.09488881
7	0xbdf48c06	-0.1194077
8	0x3dd907c0	0.10597181
9	0x3d5e7104	0.054307
10	0x3bcf2b40	0.0063222945
11	0x3ce00b40	0.027349114
12	0xbdcc426e	-0.09973608
13	0x3daf8c9a	0.085717395
14	0x3db02f2e	0.08602749
15	0x3dd773c4	0.105201274
16	0xbd0eacb8	-0.034832686
17	0x3bf32f80	0.007421434
18	0xbc7cd610	-0.015431896
19	0x3d6b40b8	0.057434767
20	0x3d8f6442	0.070015445
21	0x3dec1bc4	0.115287334
22	0x3db29e50	0.08721602
23	0xbca844a8	-0.02054055
24	0x3d3ea428	0.04654327
25	0xbb6b40c0	-0.0035896748
26	0x3c242f10	0.010020986
27	0x3de138f4	0.10997191
28	0xbdcf7864	-0.101303846
29	0x3dcac0d0	0.09900057
30	0x3d89f98e	0.06737052
31	0xbd99fd92	-0.07519068
32	0x3dabee4c	0.08395061
33	0x3df784e0	0.12085891
34	0xbc084850	-0.008318022
35	0xbda5e0fe	-0.080995545
36	0xbcaa9ba0	-0.02082616
37	0xbc18d600	-0.009328365
38	0x3dec77c0	0.11546278
39	0xbdb1c474	-0.086800486
40	0x3df4b6ec	0.11948952
41	0xbcf44af0	-0.02982089
42	0x3c1d68b0	0.009607479
43	0xbd4d237c	-0.05008267
44	0x3d8b0330	0.06787717
45	0xbd61da6c	-0.055139944
46	0x3d9ec21e	0.07751869
47	0x3d751a54	0.05983956
48	0x3de78702	0.113050476
49	0xbd5c979c	-0.053855523
50	0x3d1599a4	0.036523476
51	0x3def4f18	0.11685008
52	0xbd98370e	-0.07432376
53	0xbc64ae00	-0.0139575
54	0xbde17e9c	-0.11010477
55	0x3db56dac	0.08858809
56	0x3dbe2fa6	0.09286432
57	0x3d9583b2	0.073005095
58	0x3da99d68	0.08281976
59	0x3c8ea920	0.01741463
60	0xbd9c6560	-0.07636523
61	0xbb1071c0	-0.0022040457
62	0x3d5fb894	0.054619387
63	0xbc660ce0	-0.014041156
64	0xbdb0cb5a	-0.08632536
65	0x3cad02b8	0.02111946
66	0x3c608030	0.013702437
67	0x3d847f2c	0.064695686
68	0xbd7e2d44	-0.062054887
69	0xbd959e40	-0.073055744
70	0x3ca62708	0.020282283
71	0xbd7782e8	-0.060427576
72	0xbcffd370	-0.031228751
73	0x3dd1cea6	0.10244493
74	0x3d5da234	0.054109767
75	0x3d64d860	0.055870414
76	0xbdee2746	-0.116285846
77	0xbde551ee	-0.111972675
78	0x3dde2a0a	0.10847862
79	0xbd84edfe	-0.06490706
80	0xbdb65c4a	-0.089043215
81	0x3d896910	0.06709492
82	0x3dbf3f24	0.09338215
83	0x3cd2d3a0	0.025735676
84	0xbd338cc8	-0.04383543
85	0x3d16bdc4	0.03680207
86	0x3d3ba730	0.04581374
87	0x3d94b7e0	0.07261634
88	0x3dc793da	0.09744997
89	0xbdc759a4	-0.097338945
90	0xbd136238	-0.03598234
91	0x3df57f0e	0.119871244
92	0xbdf50d5a	-0.11965437
93	0xbd985ebc	-0.07439944
94	0xbdd3fdfe	-0.103511795
95	0xbdb7b0c2	-0.08969261
96	0xbc4b4510	-0.0124066025
97	0xbdf6e872	-0.12056054
98	0xbdc8cefe	-0.098051056
99	0xbc47f180	-0.012203574
100	0xbdbfe734	-0.0937027
101	0xbdbceda2	-0.09225012
102	0x3c99c988	0.018772855
103	0x3d012fc0	0.03153968
104	0xbb5f7f40	-0.0034102947
105	0x3b868180	0.004104793
106	0xbdb09ae0	-0.0862329
107	0x3cf6c3b0	0.030122608
108	0x3cca61a0	0.024704754
109	0x3d7bee2c	0.061506435
110	0x3d0b0074	0.03393598
111	0xbd56bdc4	-0.05242707
112	0x3dfed190	0.124423146
113	0xbd886b86	-0.066611335
114	0x3c8ad4b0	0.01694712
115	0x3de24e6c	0.11050114
116	0x3c93a048	0.018020764
117	0x3d1230c8	0.035691053
118	0x3df5312e	0.11972271
119	0xbdd9c430	-0.10633123
120	0xbc2e0630	-0.010621592
121	0x3dd33832	0.10313453
122	0x3d4566fc	0.048193917
123	0xbd70f4f0	-0.05882734
124	0x3d2b6c78	0.04185149
125	0x3d8b1f88	0.067931235
126	0xbdffd4ec	-0.124917835
127	0x3dfe3b10	0.12413609
128	0xbdcdeeda	-0.10055323
129	0xbddb6e4e	-0.10714398
130	0xbdeac5e8	-0.11463529
131	0xbd948936	-0.072527334
132	0x3dc0d8c6	0.09416346
133	0xbca8b208	-0.020592704
134	0xbd6d8bb4	-0.05799456
135	0xbd0a77a4	-0.033805504
136	0xbc404fd0	-0.011737779
137	0x3d90af9e	0.07064746
138	0xbdba843c	-0.09107253
139	0xbd9d8c64	-0.07692793
140	0xbdda93a0	-0.106726885
141	0x3dc6a3b6	0.09699194
142	0xbc6fe620	-0.014642268
143	0x3d009b5c	0.031398162
144	0xbdd33466	-0.103127286
145	0xbdb534e6	-0.0884798
146	0x3ce0acc8	0.027426139
147	0x3de3cb00	0.111227036
148	0xbdfb586e	-0.12272726
149	0x3d82653c	0.06366965
150	0x3dca1c10	0.09868634
151	0xbc209430	-0.009800956
152	0xbd0dcc28	-0.034618527
153	0xbbe620c0	-0.007022947
154	0xbd0c9584	-0.034322277
155	0xbdcac0ea	-0.09900077
156	0x3dd25298	0.1026966
157	0x3b0fed40	0.002196148
158	0xbda4b7c8	-0.08042866
159	0x3c5669e0	0.013086766
160	0xbd8b1ddc	-0.067928046
161	0x3def2f04	0.116788894
162	0x3dd8a238	0.10577816
163	0x3d87037e	0.06592463
164	0xbd9c756c	-0.07639584
165	0xbc55f640	-0.013059199
166	0x3de81a30	0.1133312
167	0x3cbc4250	0.022980839
168	0x3de56546	0.11200957
169	0xbdeec730	-0.11659086
170	0xbd8dcc30	-0.06923711
171	0x3cd40c00	0.025884628
172	0x3dff7042	0.12472583
173	0x3dc7c662	0.097546354
174	0x3d6349a0	0.055490136
175	0xbc5daa40	-0.01352936
176	0xbdc29602	-0.09501268
177	0x3dedb8ac	0.11607489
178	0xbd97fba4	-0.074210435
179	0x3c2db7a0	0.010602862
180	0xbdf79d08	-0.12090498
181	0x3d5d5180	0.054032803
182	0xbb4e04c0	-0.0031435937
183	0xbc9df030	-0.01927957
184	0x3cd2ade0	0.025717676
185	0x3dc41d26	0.09575872
186	0xb9724400	-0.0002310425
187	0x3db5fc3c	0.088860005
188	0xbb7a5a40	-0.0038200766
189	0x3ca83568	0.020533279
190	0x3c0694e0	0.0082142055
191	0x3dd2e530	0.1029762
192	0x3d67d8a0	0.056603074
193	0xbdc0849c	-0.09400293
194	0xbc50c980	-0.012743354
195	0xbdf00766	-0.11720161
196	0xbcf05e10	-0.029341727
197	0xbc4713e0	-0.012150735
198	0xbb9e8de0	-0.00483869
199	0x3d16f864	0.036857978
200	0x3dbb66e4	0.09150484
201	0xbde34890	-0.110978246
202	0xbd92a3ce	-0.071601495
203	0xbc903688	-0.017604128
204	0xbd019500	-0.031636238
205	0xbd8a0c7a	-0.06740661
206	0xbc93c5a8	-0.018038586
207	0x3d070128	0.032960087
208	0x3de22e98	0.11044043
209	0xbc6f1800	-0.014593124
210	0xbd7e31e0	-0.062059283
211	0xbcf64d08	-0.030066028
212	0xbdc57cf4	-0.096429735
213	0x3bb58f20	0.0055407435
214	0x3b8f3420	0.0043702275
215	0x3ca84258	0.020539448
216	0x3dcd5748	0.10026413
217	0x3d0c7b44	0.034297243
218	0x3a14a300	0.0005670041
219	0xbd55eb9c	-0.052226648
220	0xbd33537c	-0.04378079
221	0x3d0c007c	0.03418015
222	0xbd1d4f40	-0.038405657
223	0x3cb4b5d0	0.022059351
224	0xbca97308	-0.020684734
225	0xbbb9fe80	-0.0056760907
226	0x3dc1f3b6	0.09470312
227	0xbd5378c4	-0.051628843
228	0xbd74cfb0	-0.05976838
229	0xbcc801d0	-0.024414927
230	0x3dcc33f4	0.09970847
231	0xbd191508	-0.037373573
232	0xbbb9e240	-0.005672723
233	0x3db3281e	0.08747886
234	0xbdc2a7e2	-0.09504677
235	0x3c9fb7a0	0.019496739
236	0xbd4ddb80	-0.05025816
237	0xbdde7618	-0.10862368
238	0x3d5959b8	0.053064078
239	0x3db746a8	0.089490235
240	0x3df0be88	0.11755091
241	0x3d8b7260	0.06808925
242	0xbcb84010	-0.022491485
243	0xbd9f8816	-0.07789628
244	0x3de589f2	0.112079516
245	0xbda36db6	-0.0797991
246	0x3dcdf984	0.10057357
247	0x3d06368c	0.032766864
248	0xbd119458	-0.035541862
249	0xbdc5e854	-0.09663454
250	0x3c9c86e8	0.019107297
251	0xbdb9aeac	-0.09066519
252	0xbc00a280	-0.007851243
253	0x3c2033e0	0.009777993
254	0xbce2aa28	-0.027669027
255	0x3cba0cf0	0.022711247

lstm.weight_ih_l0_reverse f4 [256, 16]
0	0xbdb9d21e	-0.0907328
1	0xbcbd8850	-0.023136288
2	0x3d923734	0.071394354
3	0xbd68876c	-0.056769773
4	0xbd86365a	-0.065533355
5	0x3d50f468	0.051014334
6	0x3d309e14	0.043119505
7	0xbd93194a	-0.07182558
8	0x3ce025c8	0.027361766
9	0x3bdeaa80	0.0067952275
10	0xbd4781e0	-0.048707843
11	0xbc8ff178	-0.017571196
12	0xbddd5fd0	-0.108092904
13	0x3d1f8a58	0.038950294
14	0x3dd5d9f6	0.104419634
15	0xbdeeac1e	-0.116539225
16	0x3ddb270e	0.107008085
17	0x3d9a7f90	0.07543862
18	0x3cf45938	0.029827699
19	0xbd529080	-0.051407337
20	0x3ba65d20	0.0050770193
21	0x3d948c76	0.07253353
22	0xbdfae128	-0.122499764
23	0xbda4d2a6	-0.080479905
24	0xbcbdeef8	-0.023185238
25	0x3db9af60	0.09066653
26	0xbd207bdc	-0.03918062
27	0xbb8ff9c0	-0.004393786
28	0xbdb20004	-0.08691409
29	0x3d384af0	0.04499334
30	0xbdea9852	-0.11454834
31	0xbdee8dc0	-0.116481304
32	0x3d71983c	0.058983073
33	0x3dc7bdf0	0.097530246
34	0x3c7aee60	0.015315622
35	0xbd8f5270	-0.069981456
36	0x3d5a2598	0.05325851
37	0x3ddad410	0.10684979
38	0xbdf7c358	-0.12097806
39	0xbdc7e6b8	-0.09760803
40	0xbd449358	-0.04799208
41	0xbdb73898	-0.08946341
42	0x3de2ebc8	0.11080128
43	0xbd294818	-0.04132852
44	0x3df3f89e	0.11912654
45	0x3d44f628	0.048086315
46	0x3d98204e	0.07428037
47	0x3d8e6ca6	0.06954317
48	0x3cce5d20	0.02519089
49	0xbdd38c8c	-0.103295416
50	0xbd81042c	-0.06299624
51	0x3dc9f354	0.09860864
52	0xbd9e0060	-0.07714915
53	0xbdc109ee	-0.09425722
54	0xbd4a5b20	-0.04940331
55	0x3c8aa560	0.01692456
56	0xbdf953aa	-0.12174161
57	0xbde60de6	-0.1123312
58	0x3de59cf6	0.112115785
59	0xbc1e03b0	-0.009644434
60	0xbceac758	-0.028659508
61	0xbdb4dd10	-0.08831227
62	0xbd12530c	-0.03572373
63	0x3d71d798	0.059043497
64	0xbd7d942c	-0.061908886
65	0x3dc0c2e6	0.09412174
66	0xbd8fc8b0	-0.070207
67	0xbd289e44	-0.04116656
68	0x3d963016	0.073333904
69	0xbdfa922c	-0.12234911
70	0xbd1e52c8	-0.038653165
71	0x3ded1a8c	0.11577329
72	0x3de03f2e	0.109495506
73	0x3c720030	0.0147705525
74	0x3c6a7560	0.014310211
75	0xbd91fbb6	-0.07128088
76	0xbb2fd240	-0.00268282
77	0xbdc66a16	-0.09688203
78	0x3d739730	0.059470356
79	0xbd1d5e2c	-0.038419887
80	0x3df3347c	0.11875245
81	0x3d648da0	0.055799127
82	0xbde2b5ba	-0.11069818
83	0x3b8ca500	0.0042921305
84	0x3de39194	0.11111751
85	0x3d2567fc	0.04038237
86	0xbda0c762	-0.07850529
87	0x3d7e9080	0.062149525
88	0x3de01bce	0.10942803
89	0x3d2e1490	0.04250008
90	0xbcee8cd8	-0.029119894
91	0x3ddf9e3e	0.10918854
92	0xbcc0b090	-0.023521692
93	0xbde14796	-0.10999982
94	0xbc02e1c0	-0.007988393
95	0xbd505d38	-0.05087015
96	0xbd2aea84	-0.041727558
97	0xbdd3acc4	-0.10335687
98	0xbdffa38e	-0.124823675
99	0x3d1a3980	0.037652493
100	0x3c99b1f0	0.018761605
101	0xbd8c8184	-0.06860641
102	0x3d3a4880	0.045479298
103	0x3d962116	0.073305294
104	0x3b89af40	0.0042017996
105	0x3aaa7380	0.0013004392
106	0x3dfa0ad0	0.122090936
107	0xbd8b30a8	-0.0679639
108	0x3d80182e	0.06254612
109	0xbdaa75e0	-0.08323264
110	0xbb2ddcc0	-0.0026529282
111	0x3d59de4c	0.053190514
112	0x3cc66550	0.024218231
113	0x3c8fcf18	0.017554805
114	0x3c21e1d0	0.009880498
115	0xbd7317c0	-0.05934882
116	0x3da17de4	0.0788534
117	0xbde027a2	-0.10945059
118	0x3dc150c8	0.09439236
119	0xbd8834ba	-0.06650682
120	0x3d991c26	0.07476072
121	0xbdff0672	-0.12452401
122	0x3ce07540	0.02739966
123	0xbd4b0cf4	-0.0495729
124	0xbd7c5e8c	-0.061613604
125	0x3deb286a	0.11482318
126	0xbb989e00	-0.004657507
127	0xbb23a380	-0.002496928
128	0x3dee8964	0.11647299
129	0xbc5a5450	-0.013325766
130	0x3d0be158	0.03415045
131	0x3c658160	0.014007896
132	0x3be0c320	0.006859198
133	0xbd653eac	-0.05596797
134	0xbbac1980	-0.0052520633
135	0xbd35f52c	-0.044423267
136	0xbc8402a0	-0.016114533
137	0xbd7baab8	-0.061442107
138	0xbc441510	-0.011967912
139	0xbd4e89cc	-0.050424382
140	0x3dd97088	0.10617167
141	0xbd2acc10	-0.041698515
142	0xbcc77b78	-0.024350867
143	0x3c85d040	0.016334653
144	0xbd951ca2	-0.07280852
145	0x3da13c4e	0.0787283
146	0x3c4f8250	0.012665346
147	0x3da0a22a	0.0784343
148	0xbdb39a88	-0.08769709
149	0xbd113bb8	-0.035457343
150	0x3db32882	0.087479606
151	0x3d67e1b4	0.05661173
152	0xb7ccc000	-2.4408102e-05
153	0x3db11d34	0.08648148
154	0x3d00f178	0.031480283
155	0x3bf29e60	0.0074041337
156	0xbb475bc0	-0.0030419677
157	0x3db9fd66	0.09081535
158	0x3c7edd10	0.015555635
159	0xbd7903d0	-0.06079465
160	0xbda5c582	-0.08094312
161	0x3d1481dc	0.036256656
162	0x3d38ed70	0.045148313
163	0x3dc383a4	0.09546593
164	0x3d623ec4	0.05523564
165	0x3d15ba30	0.036554515
166	0xbd4d7e40	-0.05016923
167	0xbdb24a4c	-0.08705577
168	0xbdebe086	-0.11517434
169	0x3c9b6ae8	0.018971875
170	0xbdeaf7c2	-0.11473037
171	0xbd57977c	-0.0526347
172	0xbcf452d0	-0.029824644
173	0x3dd1fbf6	0.10253136
174	0x3dfd566c	0.12369999
175	0xbd07d4e0	-0.033161998
176	0xbddbe116	-0.10736291
177	0xbbf5b9e0	-0.0074989647
178	0x3d20abe4	0.039226428
179	0xbde6e72e	-0.11274563
180	0x3dde8c08	0.108665526
181	0xbc64f510	-0.013974443
182	0x3db098ba	0.0862288
183	0xbdc9d83a	-0.09855695
184	0x3d5977b4	0.053092673
185	0x3dfb0876	0.12257473
186	0x3d216be8	0.039409548
187	0xbdf1d7f6	-0.118087694
188	0xbbbb5720	-0.005717173
189	0xbc459020	-0.012058288
190	0x3d0624a0	0.032749772
191	0x3ded25e2	0.11579491
192	0xbd6a5eb8	-0.057219237
193	0x3dc27d48	0.09496552
194	0x3d1dc67c	0.038519368
195	0xbdebc656	-0.11512439
196	0xbc647940	-0.013944924
197	0xbd9062b8	-0.07050079
198	0x3dbecc04	0.09316257
199	0xbd899934	-0.06718674
200	0xbdca6dae	-0.09884201
201	0xbcf31eb8	-0.029677734
202	0x3da178de	0.07884382
203	0x3d52ecdc	0.051495418
204	0x3dddb4ca	0.108254984
205	0xbcd500d8	-0.026001379
206	0x3de2b660	0.110699415
207	0x3ccab838	0.024746045
208	0x3d88df64	0.066832334
209	0x3ca05168	0.019570068
210	0xbdacabee	-0.084312305
211	0xbcbc1380	-0.022958517
212	0xbcc8fe00	-0.02453518
213	0xbcb98400	-0.02264595
214	0xbcd3cb68	-0.025853828
215	0x3c37f060	0.011226743
216	0xbc47efa0	-0.012203127
217	0x3db729ce	0.089435205
218	0xbc44dab0	-0.01201503
219	0x3cfbeea8	0.030753449
220	0xbc0c6840	-0.008569777
221	0x3d3bef04	0.04588224
222	0x3d9c5d8e	0.07635032
223	0x3d0bed18	0.034161657
224	0xbdf1235e	-0.11774324
225	0x3d0704c8	0.032963544
226	0x3becb1c0	0.007223338
227	0x3beda460	0.007252261
228	0x3dc8c2ae	0.09802757
229	0xbda2c67c	-0.07948014
230	0x3ddf9204	0.10916522
231	0x3a8df800	0.0010831356
232	0xbda41210	-0.08011258
233	0xbdc739f4	-0.097278506
234	0xbca56220	-0.020188391
235	0xbdcf8650	-0.1013304
236	0x3d3dcd64	0.046338454
237	0xbc568010	-0.013092056
238	0x3d6f7dc0	0.058469534
239	0x3d79bef4	0.060973123
240	0xbd7fff24	-0.06249918
241	0xbc9448c0	-0.018101096
242	0xbd40e698	-0.04709491
243	0x3db4af5a	0.08822508
244	0x3cd7aa50	0.026326329
245	0x3d231124	0.03981127
246	0xbce795c0	-0.028269649
247	0x3df6a890	0.120438695
248	0x3d96aa2a	0.07356675
249	0xbdef6668	-0.11689454
250	0xbd53fa08	-0.05175212
251	0xbd42bb5c	-0.04754196
252	0x3d70e0ec	0.058808252
253	0xbcf6bbb8	-0.030118808
254	0x3d69331c	0.056933507
255	0x3dd012d4	0.10159841

lstm.weight_hh_l0_reverse f4 [256, 64]
0	0xbc350de0	-0.011050671
1	0x3ced4228	0.02896221
2	0x3d5faa88	0.05460599
3	0xbdc2f436	-0.09519236
4	0x3c168ed0	0.009189323
5	0xbd0fd2f4	-0.03511329
6	0x3c437b50	0.011931255
7	0x3d5445bc	0.051824316
8	0x3dcd8626	0.100353524
9	0xbd175de4	-0.036954775
10	0xbd5f4b50	-0.054515183
11	0x3c90e870	0.01768896
12	0x3df95618	0.12174624
13	0x3d578018	0.052612394
14	0x3d8b8aba	0.06813569
15	0xbd65c240	-0.056093454
16	0xbdc9f264	-0.098606855
17	0x3cdd62d8	0.027024671
18	0x3c78a370	0.015175685
19	0x3d97a9c4	0.07405427
20	0xbd80c810	-0.06288159
21	0xbd12eaf4	-0.0358686
22	0x3da04a18	0.07826632
23	0x3de7311e	0.11288665
24	0x3be900e0	0.0071107
25	0x3d32f2a0	0.043688416
26	0x3c811d78	0.015761122
27	0xbda9e71c	-0.08296034
28	0xbcf9bf90	-0.030486852
29	0xbdce1438	-0.1006245
30	0x3dc793e4	0.09745005
31	0xbdb0c3b4	-0.086310774
32	0xbd2e1c4c	-0.042507455
33	0xbb1ac980	-0.0023618639
34	0xbd30c150	-0.043153107
35	0x3de4980a	0.11161812
36	0xbb610900	-0.003433764
37	0xbbadbc80	-0.005302012
38	0xbcbdd8d0	-0.023174673
39	0x3d47d358	0.048785537
40	0xbcc758c0	-0.024334311
41	0x3db47286	0.08810906
42	0x3d01967c	0.031637654
43	0x3d8115d8	0.063029945
44	0x3dfa73a0	0.12229085
45	0x3dda0326	0.10645132
46	0xbdb1dfa4	-0.08685234
47	0x3d804eb0	0.062650084
48	0x3df02c5a	0.117272094
49	0xbd408650	-0.04700309
50	0x3dac0a9e	0.084004626
51	0x3d99023e	0.07471131
52	0x3db5ea7c	0.08882615
53	0xbdb9c58a	-0.09070881
54	0x3daa1e18	0.08306521
55	0xbd8bd4a8	-0.0682767
56	0xbd9e99f8	-0.07744211
57	0xbc481290	-0.012211457
58	0x3bf239a0	0.0073921233
59	0x3b8c9960	0.0042907447
60	0x3dd655d2	0.10465588
61	0xbdac23b6	-0.08405249
62	0xbc27c0f0	-0.010238871
63	0xbd891848	-0.066940844
64	0xbd4719bc	-0.048608527
65	0xbd8bd4a0	-0.068276644
66	0xbd2c0d70	-0.042005002
67	0xbd56adc0	-0.052411795
68	0xbdc7f59c	-0.09763643
69	0x3de22708	0.11042601
70	0xbd390a94	-0.045176104
71	0x3c7a26a0	0.015267998
72	0xbdabd89e	-0.08390926
73	0xbcfd6f90	-0.030936986
74	0x3c33e330	0.010979459
75	0xbdae9146	-0.085238025
76	0xbd806a9a	-0.06270333
77	0xbd626988	-0.055276424
78	0xbc67c7d0	-0.01414676
79	0x3dfa8bde	0.12233709
80	0xbd241614	-0.040060118
81	0x3d4e7ef4	0.05041404
82	0x3d23a8c0	0.039955854
83	0x3d02ca48	0.03193119
84	0x3dd46ff6	0.10372917
85	0xbd287ddc	-0.041135654
86	0x3d315840	0.043297052
87	0x3d9b778e	0.075911626
88	0x3d16eca0	0.036846757
89	0xbdc8e416	-0.09809129
90	0xbd1cc260	-0.038271308
91	0x3b522b00	0.0032069087
92	0xbd14aff0	-0.0363006
93	0xbdb3ef96	-0.08785932
94	0x3d3fc85c	0.046821937
95	0x3df064ee	0.11738001
96	0x3ced3ea0	0.028960526
97	0xbdcef396	-0.10105054
98	0xbdf406bc	-0.11915347
99	0x3d7a5798	0.061118692
100	0xbd873402	-0.066017166
101	0xbdddf420	-0.10837579
102	0x3dcf89f2	0.10133733
103	0xbd1d6c80	-0.03843355
104	0x3dd25f8c	0.1027213
105	0x3d9e83e8	0.07740003
106	0x3dd1a132	0.10235824
107	0x3dae92c2	0.085240856
108	0xbdaecfee	-0.08535753
109	0xbd3dbf00	-0.04632473
110	0xbc773610	-0.015088573
111	0x3d3728d0	0.044716656
112	0x3dd0cb52	0.1019503
113	0xbd33df64	-0.043914214
114	0xbdae5192	-0.08511652
115	0xbdc8ff68	-0.0981434
116	0x3d5e9190	0.054338038
117	0xbd6878a0	-0.056755662
118	0xbd71e688	-0.059057742
119	0xbd38e520	-0.045140386
120	0xbdb29056	-0.08718936
121	0xbbdd78a0	-0.0067587644
122	0x3dc01b8a	0.09380253
123	0x3bf190e0	0.007372007
124	0x3d5d8d5c	0.05408989
125	0xbd9daf10	-0.07699406
126	0x3de91f98	0.11382979
127	0xbdf7088a	-0.120621756
128	0xbde6d37a	-0.11270805
129	0x3dc347aa	0.09535153
130	0xbd8d5e9c	-0.06902811
131	0xbdf0fc8e	-0.11766921
132	0x3d6e87c8	0.05823496
133	0x3dd8509e	0.105622515
134	0x3d2e28e0	0.04251945
135	0x3d05eb40	0.032695055
136	0xbc8311e0	-0.015999734
137	0xbc755ac0	-0.01497525
138	0x3db35d8a	0.087580755
139	0x3d026060	0.03183019
140	0xbd4a85c8	-0.04944399
141	0xbcdd2e50	-0.026999623
142	0xbdedb428	-0.11606628
143	0x3dcb0f90	0.09915078
144	0xbde8bf3a	-0.113645986
145	0xbd435fc8	-0.047698766
146	0x3d8519f8	0.06499094
147	0x3dc39346	0.095495746
148	0xbd849982	-0.06474592
149	0x3de00f58	0.109404266
150	0x3d80a83e	0.0628209
151	0xbd896610	-0.0670892
152	0xbca3d380	-0.019998312
153	0x3ddeb6e0	0.108747244
154	0x3decb5fe	0.1155815
155	0xbd687cd4	-0.05675967
156	0xbdcf9222	-0.101352945
157	0xbd8bce12	-0.06826414
158	0xbdfd29ce	-0.12361489
159	0x3d7237e4	0.059135333
160	0x3da494a6	0.08036165
161	0x3d2b079c	0.041755304
162	0xbdb3875a	-0.08766051
163	0xbc678520	-0.014130861
164	0x3c6e7c20	0.014555961
165	0x3c8c90d0	0.017158896
166	0x3bd82dc0	0.0065972507
167	0x3c9d2098	0.019180581
168	0x3de8dcbe	0.11370228
169	0xbd3e96d4	-0.04653056
170	0xbdc51d6a	-0.09624751
171	0x3d6a0bc8	0.05714014
172	0x3db2bfe6	0.08728008
173	0xbdebbc34	-0.11510506
174	0xbdd90950	-0.10597479
175	0xbd6d92d8	-0.05800137
176	0xbdf84100	-0.12121773
177	0xbddb7dca	-0.10717352
178	0xbd5c89b0	-0.053842247
179	0xbce34a58	-0.02774541
180	0x3d87753c	0.066141576
181	0x3df1a6c2	0.11799385
182	0x3bbda120	0.00578703
183	0x3d95d2f8	0.0731563
184	0x3dc1d042	0.0946355
185	0x3c32a3e0	0.010903329
186	0xbdb07788	-0.08616549
187	0x3d8b532a	0.06802972
188	0xbc229d50	-0.009925202
189	0xbd7f9c4c	-0.062404916
190	0x3daacbfc	0.08339688
191	0xbda38eca	-0.07986219
192	0xbd9c467a	-0.0763063
193	0x3dd0a478	0.1018762
194	0xbced3e78	-0.028960451
195	0xbdb8aa36	-0.0901684
196	0xbdcc723c	-0.09982726
197	0xbddfcc5e	-0.10927652
198	0xbd9a3eea	-0.07531531
199	0xbc1b1fa0	-0.009467989
200	0xbc29cec0	-0.010364234
201	0x3dc53e30	0.09631002
202	0x3dea22b2	0.11432399
203	0x3daefe14	0.08544555
204	0xbb659b40	-0.0035035163
205	0xbdee52ea	-0.11636908
206	0xbd16be1c	-0.036802396
207	0xbca92530	-0.020647615
208	0xbdf7c298	-0.12097663
209	0xbd17c9e8	-0.037057787
210	0x3c95ece0	0.018301427
211	0x3c88d6a0	0.016703904
212	0x3dcd6d2c	0.100305885
213	0xbd8beeaa	-0.06832631
214	0xbd17454c	-0.03693132
215	0x3de3943a	0.11112256
216	0x3cf1b778	0.02950643
217	0xbdd8c778	-0.10584921
218	0x3db6f606	0.08933644
219	0xbcbb8058	-0.022888348
220	0xbd968cf6	-0.07351105
221	0x3d67a204	0.056550995
222	0x3df5599e	0.11979984
223	0x3db0d564	0.08634451
224	0xbd17a6ec	-0.037024423
225	0xbdf8408e	-0.12121688
226	0x3df0e2ba	0.11761995
227	0xbd66ce3c	-0.056349024
228	0x3d69e83c	0.05710624
229	0xbd73d870	-0.059532583
230	0xbd87e7ce	-0.0663601
231	0x3d81c374	0.06336108
232	0x3d82b168	0.06381494
233	0xbc87aa30	-0.016560644
234	0xbcbe0e58	-0.023200199
235	0x3dbe0970	0.09279144
236	0xbd61672c	-0.055030033
237	0xbd3fedf8	-0.046857804
238	0xbdff3d7c	-0.12462899
239	0xbc2c9320	-0.010533124
240	0x3d86c7e2	0.06581093
241	0x3d9a7fee	0.07543932
242	0x3cce37e8	0.025173143
243	0x3d0544d4	0.032536343
244	0xbda79efe	-0.08184622
245	0x3dbcd3de	0.09220098
246	0xbd917018	-0.07101458
247	0xbd50ebc8	-0.05100611
248	0x3d993520	0.07480836
249	0xbd1d55f8	-0.038412064
250	0xbd5b286c	-0.053505346
251	0x3d74d8e4	0.059777156
252	0x3d960546	0.073252246
253	0xbdb73970	-0.08946502
254	0xbc9026d8	-0.017596647
255	0x3df8f3aa	0.1215585

lstm.bias_ih_l0_reverse f4 [256]
0	0xbdb04d12	-0.0860845
1	0x3d6b5684	0.057455555
2	0x3dc3fed4	0.09570089
3	0xbda19b28	-0.07890922
4	0xbd735678	-0.059408635
5	0xbd9d22dc	-0.076726645
6	0xbceb5bd0	-0.028730303
7	0xbdcbacde	-0.09945081
8	0xbd5514f0	-0.05202192
9	0xbd7166e4	-0.058936015
10	0x3d962fd4	0.07333341
11	0x3cbe4738	0.02322732
12	0x3da5a76c	0.08088574
13	0xbbf2d420	-0.007410541
14	0xbc382af0	-0.011240706
15	0x3dfe9fa0	0.1243279
16	0xbc07e420	-0.008294135
17	0xbba3f2e0	-0.005003318
18	0x3dd82418	0.10553759
19	0x3db2bd02	0.08727457
20	0x3bee9920	0.0072814375
21	0x3de182d6	0.11011283
22	0x3d8dcffa	0.06924434
23	0x3d52fe20	0.051511884
24	0xbcd40b18	-0.025884196
25	0xbd711d9c	-0.05886613
26	0xbd7103d8	-0.058841556
27	0xbd1106dc	-0.035406932
28	0x3d644630	0.055731
29	0x3cad47a8	0.021152332
30	0x3da4c626	0.08045606
31	0xbd87e168	-0.0663479
32	0x3debd52e	0.1151527
33	0xbc9ccaa0	-0.019139588
34	0xbc2df950	-0.010618523
35	0x3da16502	0.07880594
36	0x3cb99bc8	0.02265729
37	0x3b968660	0.0045936555
38	0xbcc12ee0	-0.023581922
39	0xbc0de120	-0.008659631
40	0xbd821f3c	-0.06353614
41	0xbd02b184	-0.031907573
42	0xbd4f6eb0	-0.05064267
43	0xbca45e98	-0.020064637
44	0xbda18f58	-0.07888669
45	0x3cb7cd18	0.022436664
46	0x3db1b2f4	0.08676711
47	0x3d87c190	0.06628716
48	0x3d24c628	0.04022804
49	0x3c3b9fa0	0.011451632
50	0xbde02358	-0.10944241
51	0x3bacd700	0.0052746534
52	0x3d58e334	0.052951053
53	0xbd38d274	-0.04512258
54	0xbc3eae50	-0.011638239
55	0x3ce57b90	0.02801302
56	0x3d1b9574	0.037984326
57	0xbdc48a46	-0.09596686
58	0xbccb9338	-0.024850473
59	0xbd67a2d8	-0.056551784
60	0x3db54226	0.088505074
61	0xbda243a0	-0.07923055
62	0x3d49d230	0.049272716
63	0x3d92669e	0.07148479
64	0x3db5d0c2	0.08877708
65	0x3da66730	0.0812515
66	0xbcfb9b20	-0.030713618
67	0xbd89adc6	-0.06722598
68	0x3d8dc5b4	0.069224745
69	0xbd68b714	-0.056815222
70	0x3c85fa80	0.0163548
71	0x3bdbe1a0	0.006710246
72	0xbdcd4656	-0.10023181
73	0xbd1012a8	-0.035174042
74	0x3dec90dc	0.11551067
75	0x3cd20088	0.025635019
76	0x3b5871c0	0.0033026785
77	0xbc3399a0	-0.01096192
78	0xbc9436f8	-0.018092617
79	0x3da5e5be	0.081004605
80	0x3d93355c	0.07187912
81	0xbdc4bb5e	-0.0960605
82	0xbcb84aa8	-0.022496536
83	0x3da5dd3c	0.08098838
84	0x3dc270e0	0.094941854
85	0xbdb9c136	-0.09070055
86	0x3c7953a0	0.015217692
87	0xbdf2b978	-0.118517816
88	0xbda5f93c	-0.08104178
89	0x3ddeb34e	0.108740434
90	0xbba3e340	-0.0050014555
91	0xbd2e10d4	-0.042496517
92	0x3d2e6570	0.042577207
93	0x3d5ec528	0.05438724
94	0xbde7afac	-0.113128036
95	0xbd1e677c	-0.03867291
96	0x3de1e070	0.11029136
97	0x3dd8064e	0.105480775
98	0xba760400	-0.00093847513
99	0xbd93a760	-0.072096586
100	0x3c492590	0.012277022
101	0xbcb91488	-0.022592798
102	0x3d9a5f1c	0.07537672
103	0xbd85e7d6	-0.0653836
104	0x3d5e04ec	0.054203913
105	0x3dd1ff10	0.102537274
106	0x3d83ab54	0.064291626
107	0x3ceb2a28	0.028706625
108	0x3d69246c	0.0569195
109	0xbdbabac8	-0.09117657
110	0xbd530288	-0.051516086
111	0xbd89cb76	-0.0672826
112	0xbde1bf58	-0.11022824
113	0xbd4b9380	-0.049701214
114	0x3cedad90	0.029013425
115	0x3d529d94	0.05141981
116	0xbc1ab1d0	-0.009441808
117	0x3dd12fac	0.10214171
118	0x3db4eb22	0.088339105
119	0xbaa36700	-0.001246661
120	0xbde8e2be	-0.11371373
121	0xbd0a3cf0	-0.03374952
122	0xbddeb2fe	-0.10873984
123	0x3dbb1330	0.09134519
124	0x3cf7a7d8	0.030231401
125	0xbd729f10	-0.059233725
126	0x3d365364	0.04451312
127	0xbdecfdfc	-0.11571881
128	0x3d559474	0.05214353
129	0xbdffff36	-0.124998495
130	0x3c479310	0.0121810585
131	0xbd619c98	-0.05508098
132	0xbdc2ae6e	-0.09505926
133	0x3d80694a	0.06270082
134	0x3deff1ae	0.117160186
135	0xbd2c09b0	-0.042001426
136	0xbcd4e178	-0.025986418
137	0x3de95b20	0.11394334
138	0xbd925df4	-0.071468264
139	0x3dc042be	0.0938773
140	0x3d77c440	0.060489893
141	0xbdbe07fc	-0.09278867
142	0xbd9e9870	-0.07743919
143	0x3dbead50	0.093104005
144	0xbd38d07c	-0.0451207
145	0xbd63c148	-0.05560425
146	0xbddd6b86	-0.10811524
147	0x3d812090	0.06305039
148	0xbcb9b330	-0.022668451
149	0xbdb79ab6	-0.08965056
150	0xbd55aee0	-0.052168727
151	0x3db2f0d6	0.08737342
152	0xbcda24b0	-0.026628822
153	0xbde6f07c	-0.112763375
154	0x3d90bfd2	0.07067837
155	0xbcc92f98	-0.024558827
156	0x3ac63000	0.0015120506
157	0x3daa461e	0.08314155
158	0xbc8f87b8	-0.01752077
159	0xbdfec8a2	-0.124406114
160	0xbdc191fe	-0.09451674
161	0xbd844318	-0.064581096
162	0xbdf08960	-0.11744952
163	0xbcc67638	-0.024226293
164	0x3db801d4	0.08984724
165	0xbd8db5f4	-0.069194704
166	0x3dd01d6e	0.10161863
167	0xbd301fc0	-0.04299903
168	0x3d986546	0.074411914
169	0xbdce5b88	-0.10076052
170	0xbda87f2c	-0.08227381
171	0xbd4a5d2c	-0.049405262
172	0x3b402500	0.0029318929
173	0x3bc19f20	0.0059088618
174	0x3cc7f148	0.024407044
175	0x3dcb6bb2	0.099326506
176	0x3d1188e4	0.03553094
177	0x3dd4d84a	0.10392816
178	0xbdd396d0	-0.103314996
179	0xbd07cb04	-0.033152595
180	0x3c84de20	0.016219199
181	0xbcb86e48	-0.022513524
182	0xbcb5a2e8	-0.022172406
183	0xbdf909e6	-0.12160091
184	0xbcff9ce0	-0.031202734
185	0x3c8769f8	0.016530022
186	0x3d60546c	0.05476801
187	0xbd7db448	-0.061939508
188	0x3d8e7d5e	0.06957506
189	0xbd69378c	-0.05693774
190	0x3ba00c40	0.004884273
191	0xbabe7b00	-0.0014532506
192	0xbdfbc81e	-0.12294029
193	0x3dbc0fea	0.09182723
194	0xbdcf359a	-0.101176456
195	0xbda10832	-0.07862891
196	0xbbfa8b00	-0.0076459646
197	0xbd9ef428	-0.07761413
198	0xbdd2ac04	-0.102867156
199	0xbd8f3f8e	-0.06994544
200	0x3dc2cce0	0.09511733
201	0x3ce05168	0.027382568
202	0x3d9cca40	0.076557636
203	0x3d9acb94	0.07558361
204	0xbc5d2040	-0.0134964585
205	0xbbf5ed20	-0.007505074
206	0xbda497c6	-0.08036761
207	0xbc4da610	-0.012551799
208	0x3c9ae008	0.018905655
209	0xbdbb594a	-0.0914789
210	0x3ded5ec0	0.11590338
211	0xbcb4f4a0	-0.022089303
212	0xbd8822e6	-0.06647281
213	0x3d9fb14a	0.07797487
214	0xbda01e92	-0.07818331
215	0x3df11cf2	0.11773099
216	0xbd24b430	-0.040210903
217	0x3d9d5396	0.076819584
218	0x3d71863c	0.058965907
219	0xbd8b041e	-0.06787895
220	0xbdb45de8	-0.08806974
221	0x3cf0c730	0.029391855
222	0x3cf35fe0	0.029708803
223	0xbdcd151e	-0.100137934
224	0xbdc82660	-0.097729445
225	0xbde0cd10	-0.109766126
226	0x3d2a96e4	0.041647807
227	0x3c280c80	0.0102568865
228	0x3b3eb580	0.0029099882
229	0xbdd9dcc8	-0.10637814
230	0xbd2aca90	-0.041697085
231	0xbdf8beaa	-0.12145741
232	0xbd7b9cf0	-0.061428964
233	0xbc538420	-0.012909919
234	0x3dedaec0	0.116055965
235	0xbd9b364a	-0.07578714
236	0xbdd60644	-0.10450414
237	0x3dc0ec1e	0.09420036
238	0x3ddf2df4	0.10897437
239	0xbd013898	-0.031548113
240	0x3df2c4f0	0.11853969
241	0xbda380be	-0.0798354
242	0x3de51d98	0.11187285
243	0x3d66b4f4	0.056324914
244	0x3d84e8c4	0.06489709
245	0xbda637f4	-0.08116141
246	0x3db77f04	0.08959773
247	0x3dd57f7a	0.10424705
248	0x3db5469e	0.0885136
249	0x3d987596	0.07444303
250	0x3d3a3d38	0.04546854
251	0xbdbf4642	-0.093395725
252	0x3c367650	0.011136606
253	0xbdb460fc	-0.08807561
254	0x3dccf7e2	0.100082174
255	0xbdf62a84	-0.12019828
